saved_models/best_model.pth (torch, 271529 bytes, 18 tensors)

lstm.weight_ih_l0 f4 [192, 5]
-0.12985793 -0.13671389 0.029762527 0.027639285 0.0021567293 0.07279395 0.045107152 0.106351145
0.08474012 0.013135118 0.08818955 -0.07808113 -0.055753537 0.14694913 -0.11803602 0.09512834
-0.052557886 0.06255459 0.15259786 -0.038531788 0.1560837 -0.0809455 -0.11397979 0.0058407313
-0.12671296 0.10789409 -0.13295975 0.017729973 0.09189718 0.01722937 0.12486644 -0.10968011
-0.112545185 -0.04004253 -0.10132985 0.15694097 -0.043710984 0.105204426 0.12939548 -0.06307291
-0.009762866 0.10847883 0.11524796 -0.06595445 -0.12824407 0.10437361 0.04048257 -0.08625598
0.04269513 -0.0065410417 0.051585987 0.17678183 0.1383666 -0.050328102 0.03412641 0.027196417
0.027699092 0.09766495 0.13590243 -0.0043967497 0.109387666 -0.012149649 -0.12467667 0.12320832
0.069195904 0.019967549 0.11093255 -0.061663367 0.112383455 0.04705713 0.0049302783 -0.10105611
0.10482342 0.10295584 -0.10821516 -0.07385077 0.15561947 0.018799888 0.09856795 -0.012905626
0.12489158 0.03517794 0.12821071 -0.05986887 -0.023828872 -0.09394932 -0.050788943 0.08172946
0.0032089385 -0.03675247 0.09026401 0.104545765 -0.029082887 0.1330447 -0.11524848 0.01967308
0.052424245 0.08413276 0.12457499 0.08393827 0.08985523 0.053589996 0.13989986 0.1024622
-0.014532268 0.0987389 -0.100188084 -0.023483023 -0.0547008 0.10294552 -0.06637547 0.16892098
-0.08134766 -0.021788359 0.05690099 -0.105942994 0.16961913 0.15106452 -0.0933389 0.1555042
-0.0061233486 0.12183436 -0.016881343 -0.04262652 -0.031297434 -0.06269735 -0.0051395977 0.15414067
-0.011193276 0.07419295 -0.035364874 0.040201377 -0.15949182 0.035434075 -0.012465714 0.049053837
0.042096168 0.010786851 0.046051025 -0.13152082 0.19066434 0.035593428 0.11893208 0.19714163
0.15454274 0.17474356 0.038367897 -0.08404969 -0.009205283 -0.10483552 0.10771817 0.0028773388
-0.00811218 0.14825052 -0.054442037 -0.03799759 0.14215374 -0.020177588 -0.046694692 -0.016034262
0.12955804 0.058849204 -0.017723458 -0.083428875 0.013508148 -0.06274534 0.13841872 0.11008971
0.05502095 0.002012275 0.124884374 0.030233216 0.16641909 0.14678317 -0.03019991 -0.04777444
0.09907251 -0.100228496 0.054041278 0.12194938 0.022170065 0.07308384 -0.11932345 0.0095501775
-0.09815643 0.0024978544 0.0875309 -0.04284726 -0.045387708 -0.07323499 0.13448021 0.01273653
0.1254528 0.0033506206 0.13914976 0.105509795 0.17200989 0.16184904 -0.035504963 0.041681737
0.08820583 0.079198666 0.11899559 -0.03726154 0.03611548 -0.020907741 0.03554942 0.06416678
-0.018993588 0.092662446 0.0018254238 0.055218678 0.14446744 0.09874457 0.03577027 -0.020180771
-0.07971912 -0.08459686 0.08657299 0.06825514 0.127666 0.022421513 0.07941569 0.052583642
-0.11386457 -0.06967466 0.023064597 0.07843842 0.107889704 -0.09089207 -0.079240695 0.10617271
0.03222432 -0.10091087 -0.119186275 -0.050962638 0.053868946 -0.105911754 0.08720501 0.12241213
0.016295435 -0.14669684 -0.18175648 -0.026580267 -0.17930432 -0.026107486 0.10287957 -0.10102268
-0.017638143 -0.10437581 0.0019467954 0.12725477 -0.0252581 0.04002736 0.023170972 -0.12226029
00000000: 7af9 04be bafe 0bbe 8bd0 f33c c86b e23c
00000010: ea57 0d3b ff14 953d 47c2 383d a1ce d93d
00000020: 3a8c ad3d ae34 573c b99c b43d 00e9 9fbd
00000030: d25d 64bd d579 163e debc f1bd a6d2 c23d
00000040: f046 57bd 9f1c 803d 9d42 1c3e 82d3 1dbd
00000050: 68d4 1f3e c1c6 a5bd 3c6e e9bd 9b63 bf3b
00000060: 0bc1 01be 94f7 dc3d 9a26 08be 733e 913c
00000070: 9734 bc3d 9c24 8d3c fab9 ff3d f79f e0bd
00000080: 177e e6bd a303 24bd 0686 cfbd 22b5 203e
00000090: 4a0a 33bd 6b75 d73d 4080 043e 5f2c 81bd
000000a0: 6ef4 1fbc 262a de3d 1f07 ec3d 2013 87bd
000000b0: 6a52 03be d5c1 d53d 0dd1 253d faa6 b0bd
000000c0: 17e1 2e3d 3c56 d6bb d44b 533d 4c06 353e
000000d0: f9af 0d3e d724 4ebd 22c8 0b3d 05cb de3c
000000e0: 35e9 e23c 9004 c83d 022a 0b3e 9c12 90bb
000000f0: a406 e03d 520f 47bc 7b56 ffbd a554 fc3d
00000100: 95b6 8d3d fc92 a33c 9b30 e33d ba92 7cbd
00000110: 4c29 e63d fabe 403d 2c8e a13b 81f6 cebd
00000120: a9ad d63d 83da d23d e99f ddbd 133f 97bd
00000130: b65a 1f3e 3902 9a3c fedd c93d 1e72 53bc
00000140: 28c7 ff3d be16 103d ab49 033e 0f39 75bd
00000150: c434 c3bc 8068 c0bd 1108 50bd c661 a73d
00000160: 0e4d 523b c289 16bd 56dc b83d 171c d63d
00000170: 3c3f eebc df3c 083e 6507 ecbd 7029 a13c
00000180: ceba 563d cc4d ac3d 2c21 ff3d d4e7 ab3d
00000190: 0506 b83d 2f81 5b3d e941 0f3e b4d7 d13d
000001a0: c018 6ebc 9f37 ca3d 692f cdbd 785f c0bc
000001b0: f20d 60bd 1ad5 d23d ddef 87bd 9ff9 2c3e
000001c0: 9a99 a6bd 807d b2bc 0311 693d a4f8 d8bd
000001d0: a3b0 2d3e a8b0 1a3e 7728 bfbd 7e3c 1f3e
000001e0: 5fa6 c8bb 4b84 f93d be4a 8abc 2599 2ebd
000001f0: bd31 00bd 7867 80bd 126a a8bb 0dd7 1d3e
00000200: 0164 37bc 79f2 973d c2da 10bd 33aa 243d
00000210: d351 23be 5223 113d fe3c 4cbc adec 483d
00000220: 086d 2c3d 55bb 303c 00a0 3c3d 65ad 06be
00000230: 833d 433e 6aca 113d aa92 f33d 7fdf 493e
00000240: 7440 1e3e faef 323e a827 1d3d 3e22 acbd
00000250: c1d1 16bc 01b4 d6bd 589b dc3d bc91 3c3b
00000260: f3e8 04bc fcce 173e 9dfe 5ebd 5ca3 1bbd
00000270: c090 113e 784b a5bc ef42 3fbd 495a 83bc
00000280: ddaa 043e dd0b 713d c930 91bc c2dc aabd
00000290: 4751 5d3c a180 80bd a3bd 0d3e b776 e13d
000002a0: a65d 613d 5fe0 033b 61c3 ff3d a6ab f73c
000002b0: c469 2a3e 544e 163e cd65 f7bc 22af 43bd
000002c0: 87e6 ca3d 9944 cdbd 635a 5d3d 99c0 f93d
000002d0: ff9d b53c fbac 953d da5f f4bd 5978 1c3c
000002e0: 3d06 c9bd 0bb3 233b 6743 b33d 9c80 2fbd
000002f0: 76e8 39bd 3afc 95bd 2eb5 093e e1ac 503c
00000300: b376 003e 1696 5b3b 467d 0e3e 8515 d83d
00000310: 5c23 303e c1bb 253e a76d 11bd 78ba 2a3d
00000320: 42a5 b43d e932 a23d f6b3 f33d 8e9f 18bd
00000330: d3ed 133d b646 abbc 459c 113d df69 833d
00000340: 7198 9bbc cfc5 bd3d 0f43 ef3a fb2c 623d
00000350: 46ef 133e 983a ca3d d983 123d 2552 a5bc
00000360: c743 a3bd 1e41 adbd 2e4d b13d 5ac9 8b3d
00000370: e0ba 023e 52ad b73c b1a4 a23d f261 573d
00000380: d431 e9bd 97b1 8ebd f7f1 bc3c 53a4 a03d
00000390: 47f5 dc3d 9f25 babd f248 a2bd 1471 d93d
000003a0: a6fd 033d 5caa cebd ef17 f4bd 33be 50bd
000003b0: afa5 5c3d 43e8 d8bd 8a98 b23d 36b3 fa3d
000003c0: 017e 853c b237 16be 5f1e 3abe dcbe d9bc
000003d0: 8d9b 37be 5edf d5bc 86b2 d23d fbe4 cebd
000003e0: de7d 90bc fcc2 d5bd 9d2b ff3a 134f 023e
000003f0: 13ea cebc bbf3 233d 0dd1 bd3c 9a63 fabd

lstm.weight_hh_l0 f4 [192, 48]
0.11492528 0.03664236 0.017853137 0.04828807 -0.008928564 -0.08518111 0.22815219 -0.093788005
0.10016232 -0.13238384 -0.101117745 -0.0658862 0.122781284 -0.12754002 0.08814367 0.116545685
-0.022832364 -0.025148412 0.18124154 0.21247177 -0.15572742 -0.0368921 -0.17762686 -0.019175466
0.045959484 -0.09008296 0.24320605 0.06133248 -0.0068608914 0.12699965 0.11747568 -0.047902763
0.16580775 0.10602444 0.15111719 0.16691796 -0.06850919 0.20253548 0.051083516 0.09472482
-0.25552675 0.01823641 -0.110936984 0.031396233 0.008666887 0.09385414 0.10452103 -0.043513652
0.06042443 -0.1463067 -0.017076777 0.055792663 -0.10446445 0.07152124 -0.06953752 -0.13186851
-0.03403611 -0.0762895 -0.049189404 0.15290052 -0.14315145 -0.054410152 0.022826051 0.10255064
-0.018333877 -0.001770562 -0.13649823 0.09599855 -0.011626774 0.017442582 0.053179704 -0.10764311
0.101134926 0.10756364 -0.041579314 -0.02890152 0.08869864 -0.16799517 0.095810525 0.13743326
0.060626864 0.066760905 -0.096390404 -0.13795626 0.0015676437 0.06929805 0.047450934 -0.1694499
-0.13645737 0.23614933 -0.10434604 -0.12156695 0.10680051 0.073124506 -0.12175794 -0.15987532
-0.06476884 -0.024928248 -0.038617622 0.046453748 0.043973498 0.09238412 -0.004623989 0.020307688
0.09610358 -0.10266553 0.10507343 0.108375035 -0.014921003 -0.10052874 0.075600505 -0.14717634
-0.05773869 0.057639644 -0.07113034 -0.09141696 -0.038465984 -0.15538059 -0.07264278 0.040698703
-0.047521923 0.031650178 -0.017276455 0.011879001 0.006300372 0.0969996 -0.12928768 -0.10453738
0.09202501 -0.09896526 -0.12758562 -0.035831723 -0.027001778 -0.0338266 0.12419634 -0.0543378
0.026154768 0.1656936 -0.12410377 -0.007953934 0.053144544 -0.038444508 -0.07103786 0.03248341
-0.0191592 0.06473537 -0.111736156 0.051253106 0.027923698 -0.11258126 -0.11485421 0.14036486
0.03533061 -0.03872249 0.1029839 0.06956983 -0.10716797 -0.003971788 -0.043460913 -0.103683986
0.081005 0.09228336 0.044373862 -0.15041082 0.113577664 0.032649655 0.14683208 -0.0155928815
-0.0035787085 -0.16634755 0.023987709 0.03609565 -0.044508103 0.11447395 0.08562028 -0.05803046
-0.023682011 -0.008265413 0.12172582 -0.17147085 -0.05010941 0.06777626 0.04125023 0.052960116
0.074200414 0.10320232 0.1082229 -0.097789764 -0.055164278 -0.14385375 0.021176869 -0.17276958
0.16926493 -0.039790027 -0.03894114 -0.15080908 -0.11331654 0.09221207 0.08597496 -0.08398603
0.052353825 -0.053483732 -0.104894996 0.019167367 0.0769114 -0.0824833 -0.10587321 -0.08553393
0.09502108 -0.09738071 -0.018453233 -0.11502217 0.05906673 0.0023985605 0.15911376 0.004408299
-0.09115987 -0.05913152 -0.04887382 -0.20689327 0.053707436 -0.12421724 0.036519904 -0.07528871
-0.16989115 -0.10785142 -0.19991614 -0.15662357 0.1069057 0.05746487 -0.10442278 0.013229506
0.14754121 -0.010537893 0.17472963 0.0012801791 0.09748858 0.01679059 -0.12804727 0.008024344
-0.119930506 -0.17305256 -0.061135218 -0.053042073 0.07154416 0.05943492 -0.05934806 0.01993438
-0.04101793 0.05817913 0.096710555 0.03528266 0.009021348 -0.010687625 0.15708742 -0.004978157
00000000: f25d eb3d 4d16 163d be40 923c b6c9 453d
00000010: 1d49 12bc 6f73 aebd baa0 693e ed13 c0bd
00000020: e721 cd3d a18f 07be d216 cfbd 58ef 86bd
00000030: c174 fb3d da99 02be ab84 b43d 81af ee3d
00000040: f00a bbbc 0b04 cebc 6297 393e 3392 593e
00000050: 0277 1fbe 2c1c 17bd d1e3 35be de15 9dbc
00000060: 0340 3c3d 6a7d b8bd 020b 793e c437 7b3d
00000070: 54d1 e0bb 320c 023e 1797 f03d b035 44bd
00000080: 82c9 293e 5723 d93d 77be 1a3e 8bec 2a3e
00000090: 8c4e 8cbd 7665 4f3e f33c 513d 16ff c13d
000000a0: 67d4 82be 8664 953c ee32 e3bd 5699 003d
000000b0: 8fff 0d3c 9936 c03d 1f0f d63d 5f3b 32bd
000000c0: 9b7f 773d 6cd1 15be 99e4 8bbc d986 643d
000000d0: 75f1 d5bd ba79 923d b069 8ebd 8a08 07be
000000e0: 7369 0bbd ab3d 9cbd d47a 49bd f491 1c3e
000000f0: 4b96 12be 2edd 5ebd b3fd ba3c 1206 d23d
00000100: ed30 96bc 3412 e8ba 31c6 0bbe e39a c43d
00000110: 3a7e 3ebc bfe3 8e3c f6d2 593d fe73 dcbd
00000120: d41f cf3d 534a dc3d 124f 2abd e1c2 ecbc
00000130: a2a7 b53d ed06 2cbe 4f38 c43d 4ebb 0c3e
00000140: e053 783d f1b9 883d 5568 c5bd 6844 0dbe
00000150: 6579 cd3a 23ec 8d3d e95b 423d 4684 2dbe
00000160: 7bbb 0bbe 21d1 713e 60b3 d5bd 18f8 f8bd
00000170: 3aba da3d 4dc2 953d 3a5c f9bd 5bb6 23be
00000180: 87a5 84bd 5336 ccbc 832d 1ebd 4946 3e3d
00000190: 8e1d 343d e333 bd3d d584 97bb 4f5c a63c
000001a0: f4d1 c43d 4e42 d2bd bd30 d73d bbf3 dd3d
000001b0: 3977 74bc 03e2 cdbd 70d4 9a3d 65b5 16be
000001c0: 687f 6cbd 8c17 6c3d c9ac 91bd d138 bbbd
000001d0: 828e 1dbd 171c 1fbe bdc5 94bd afb3 263d
000001e0: 59a6 42bd 9ea3 013d 5a87 8dbc 24a0 423c
000001f0: 5a73 ce3b baa7 c63d fd63 04be b217 d6bd
00000200: 9c77 bc3d 4cae cabd cea5 02be 49c4 12bd
00000210: d532 ddbc c38d 0abd a75a fe3d 5091 5ebd
00000220: 8642 d63c 95ab 293e 1e2a febd 3851 02bc
00000230: 18ae 593d fd77 1dbd 4c7c 91bd 530d 053d
00000240: c1f3 9cbc fa93 843d edd5 e4bd c7ee 513d
00000250: 3dc0 e43c 0191 e6bd af38 ebbd cebb 0f3e
00000260: d4b6 103d 799b 1ebd 39e9 d23d a17a 8e3d
00000270: e17a dbbd c625 82bb 1204 32bd 4558 d4bd
00000280: f3e5 a53d 0fff bc3d 5ec1 353d 4b05 1abe
00000290: 689b e83d a5bb 053d 265b 163e 4979 7fbc
000002a0: c488 6abb 0357 2abe df81 c43c 08d9 133d
000002b0: 214e 36bd 5171 ea3d af59 af3d 59b1 6dbd
000002c0: c700 c2bc a86b 07bc 634b f93d 0e96 2fbe
000002d0: 863f 4dbd 48ce 8a3d 00f6 283d b5ec 583d
000002e0: 63f6 973d bd5b d33d f8a3 dd3d 0046 c8bd
000002f0: f0f3 61bd 664e 13be 1d7b ad3c 82ea 30be
00000300: c953 2d3e defa 22bd bf80 1fbd b26d 1abe
00000310: 8112 e8bd afd9 bc3d a413 b03d de00 acbd
00000320: f770 563d c211 5bbd 30d3 d6bd e204 9d3c
00000330: b983 9d3d 01ed a8bd 0ed4 d8bd 6a2c afbd
00000340: 699a c23d 8a6f c7bd 3c2b 97bc be90 ebbd
00000350: f5ef 713d 2b31 1d3b b8ee 223e 7e73 903b
00000360: 07b2 babd e533 72bd ea2f 48bd d4db 53be
00000370: 54fc 5b3d 9c65 febd e595 153d f830 9abd
00000380: f2f7 2dbe 35e1 dcbd d1b6 4cbe ee61 20be
00000390: 60f1 da3d 4960 6b3d 9cdb d5bd 92c0 583c
000003a0: 0b15 173e 20a7 2cbc 53ec 323e afcb a73a
000003b0: 18a8 c73d 6b8c 893c d31e 03be 8a78 033c
000003c0: 209e f5bd b134 31be ec68 7abd a542 59bd
000003d0: bf85 923d 0872 733d f416 73bd 6d4d a33c
000003e0: 6b02 28bd 3d4d 6e3d 2f10 c63d 8d84 103d
000003f0: 47ce 133c 261b 2fbc 86db 203e cf1f a3bb

lstm.bias_ih_l0 f4 [192]
0.12026417 -0.033628237 -0.1320497 0.044051584 -0.014041975 0.14625093 -0.016425297 0.066397116
-0.1032426 0.12826335 0.10195876 0.09401313 -0.0467898 0.13939863 0.12306317 0.013550818
-0.06788484 -0.030465776 0.08543683 0.03661172 -0.13799295 0.0046147117 0.027715143 0.019837588
0.124528624 -0.006147209 -0.0885009 0.115388796 0.24941543 -0.02526619 0.05326422 0.15386476
-0.06515682 -0.06304559 -0.03051871 -0.023214785 -0.100620635 0.16471604 0.12620369 -0.05362695
-0.051825847 0.089818515 0.054686062 -0.075357385 -0.114190675 -0.038834102 -0.028209671 -0.0069803335
-0.013583083 0.04610412 0.13557687 -0.04465036 -0.094023034 -0.046951767 0.010305158 0.05485865
0.09726898 0.023136107 -0.09345045 -0.033642 0.04733612 0.1502552 0.04762099 -0.07089782
-0.021933362 -0.13451749 0.06795885 -0.0486906 0.010750994 -0.023552233 0.15580662 0.109421924
-0.07134222 0.013028815 0.059535682 0.082217745 0.108150214 0.023063304 0.019848987 -0.068494916
-0.062254675 -0.07871913 -0.036989283 -0.0122193415 0.031115146 -0.01762646 0.057279844 -0.101915315
0.085944705 -0.052233092 0.049650367 -0.060826637 0.06528474 0.0067286245 0.045476653 -0.12504226
0.08229593 0.10351509 0.035216287 -0.11705782 0.1313196 -0.0042041303 0.060425892 0.039739896
0.09925679 -0.036313944 -0.05718454 -0.05932306 0.09176382 -0.02999305 0.07608625 -0.07461897
-0.01802974 0.06264909 -0.047136467 0.022486228 -0.076893605 -0.014406541 -0.015290401 0.0044738143
0.04668781 -0.049949173 0.06418358 -0.122074366 -0.110699676 0.028254345 0.010633069 -0.009508679
-0.015138967 0.059023507 0.08428577 -0.07597368 -0.14086978 0.070526496 -0.045628127 -0.12033846
-0.12994817 -0.1128802 -0.06860766 -0.022683265 -0.13070178 -0.10759062 -0.07590052 0.11091258
-0.023686577 0.04198169 0.026810637 0.1231853 -0.10774394 -0.018228577 0.026579542 0.04470544
-0.10086525 0.09038214 0.04285139 -0.124946035 -0.054542106 -0.10106379 0.12402645 0.09812873
0.111724585 -0.011893199 0.13297325 -0.02986791 -0.055525076 -0.033872288 -0.058710594 -0.083235174
0.13874893 -0.044457026 -0.0138293365 -0.14846984 0.061819833 -0.02538395 -0.006062144 -0.00036466046
0.06307143 -0.094597034 -0.048541546 -0.10801742 0.123939246 -0.091702215 0.0336156 0.11125116
0.066813484 -0.029534576 0.020299673 0.04282811 -0.046476055 0.012913338 0.03892843 -0.03519226
00000000: 104d f63d c3bd 09bd 0938 07be 6f6f 343d
00000010: 5010 66bc cec2 153e 588e 86bc 36fb 873d
00000020: db70 d3bd 7857 033e c1cf d03d f589 c03d
00000030: a9a6 3fbd 84be 0e3e 8b08 fc3d 4004 5e3c
00000040: 3507 8bbd 5d93 f9bc 81f9 ae3d 2cf6 153d
00000050: 064e 0dbe 0237 973b de0a e33c 7082 a23c
00000060: dd08 ff3d 876e c9bb f63f b5bd f650 ec3d
00000070: c266 7f3e 0afb cebc 952b 5a3d b98e 1d3e
00000080: f070 85bd 0c1e 81bd 6002 fabc ef2c bebc
00000090: 3112 cebd 52ab 283e 8a3b 013e efa7 5bbd
000000a0: 5747 54bd c5f2 b73d 7efe 5f3d f954 9abd
000000b0: cddc e9bd 8210 1fbd f817 e7bc 48bb e4bb
000000c0: 948b 5ebc acd7 3c3d aad4 0a3e 4ce3 36bd
000000d0: 268f c0bd 7f50 40bd f7d6 283c 77b3 603d
000000e0: f634 c73d ef87 bd3c f362 bfbd 32cc 09bd
000000f0: 85e3 413d 80dc 193e 3a0e 433d e032 91bd
00000100: 98ad b3bc f4be 09be 022e 8b3d cb6f 47bd
00000110: f024 303c 9df0 c0bc c58b 1f3e 9a18 e03d
00000120: df1b 92bd d076 553c b0db 733d c761 a83d
00000130: dc7d dd3d 41ef bc3c 589a a23c 1047 8cbd
00000140: c2fe 7ebd 7f37 a1bd 1382 17bd a233 48bc
00000150: 31e5 fe3c 5e65 90bc 459e 6a3d fab8 d0bd
00000160: c703 b03d 5ef2 55bd 2f5e 4b3d 5a25 79bd
00000170: 01b4 853d cb7b dc3b ba45 3a3d 140b 00be
00000180: c58a a83d b8ff d33d f43e 103d 03bc efbd
00000190: a578 063e cdc2 89bb 2481 773d 4dc6 223d
000001a0: 2547 cb3d eebd 14bd 563a 6abd bdfc 72bd
000001b0: abee bb3d fcb3 f5bc 1cd3 9b3d d5d1 98bd
000001c0: 1bb3 93bc 2b4e 803d 2b12 41bd 0a35 b83c
000001d0: 657a 9dbd 6a09 6cbc 9784 7abc 1399 923b
000001e0: b83b 3f3d 8197 4cbd ae72 833d 2002 fabd
000001f0: 83b6 e2bd a875 e73c 5336 2e3c 4aca 1bbc
00000200: 6e09 78bc a2c2 713d 059e ac3d 1798 9bbd
00000210: 2b40 10be 3270 903d 8fe4 3abd 0374 f6bd
00000220: 2211 05be bc2d e7bd 2c82 8cbd 41d2 b9bc
00000230: b0d6 05be 7958 dcbd bb71 9bbd 2226 e33d
00000240: 5a0a c2bc fef4 2b3d fba1 db3c 9348 fc3d
00000250: dba8 dcbd 1954 95bc 57bd d93c 0d1d 373d
00000260: 7192 cebd 451a b93d f084 2f3d b5e3 ffbd
00000270: 8b67 5fbd 88fa cebd 9401 fe3d b7f7 c83d
00000280: dccf e43d b1db 42bc 242a 083e 8cad f4bc
00000290: 436e 63bd abbd 0abd 857a 70bd 3477 aabd
000002a0: 3314 0e3e 9218 36bd 7194 62bc 7a08 18be
000002b0: cb36 7d3d 00f2 cfbc f3a4 c6bb e62f bfb9
000002c0: 982b 813d 17bc c1bd 80d3 46bd 3d38 ddbd
000002d0: dcd3 fd3d 5fce bbbd 83b0 093d a6d7 e33d
000002e0: 82d5 883d 7ff2 f1bc 804b a63c 876c 2f3d
000002f0: ad5d 3ebd 7792 533c 6b73 1f3d c225 10bd

lstm.bias_hh_l0 f4 [192]
0.18980047 0.039063174 -0.034396395 0.043503623 0.14123037 0.11201031 0.017215608 0.023122592
0.036413826 0.045438632 -0.07448013 -0.062823124 0.019439802 0.11254962 0.007438358 0.0010597267
0.08097172 0.076807484 -0.06658047 -0.030715577 -0.07446136 0.19108348 0.1254853 0.10379168
-0.01716294 -0.045033675 -0.069607385 -0.006410558 0.26433274 0.037613854 -0.058061402 0.11015785
-0.05020483 -0.07623206 -0.0726162 0.031592354 0.15046316 -0.032442573 0.042312335 0.040644053
-0.041857116 -0.06761054 0.12601763 -0.104245275 -0.12271555 0.1467492 -0.08093249 0.1324955
0.16391818 0.05053 0.12029453 -0.06943797 -0.06363461 -0.0023285507 -0.13916355 0.00016077167
-0.10123761 0.068250775 -0.043371044 -0.038313832 -0.07691378 0.059181456 -0.04387646 -0.062426757
-0.012516966 0.13268588 0.14578721 -0.087944046 0.047366954 0.040880166 0.06321516 0.14397223
0.0724099 0.12485054 0.11393451 -0.04057908 0.17114139 0.10138597 -0.0022346165 0.029515231
-0.14336531 0.014569199 0.16288733 -0.05467416 0.14648499 -0.006454799 0.07295782 0.07636667
-0.032935254 -0.07275012 0.008997717 0.0349185 0.09935525 0.02368872 0.14696266 0.03145165
-0.037226576 -0.038037874 -0.11205671 0.010922901 0.07436132 -0.13325267 0.03776706 0.011207044
0.051298212 -0.103304856 -0.062313024 0.066441 0.047664247 0.07421745 0.026649816 -0.044270158
0.04338743 0.087294355 0.09677226 0.013626761 -0.0719631 -0.014153298 -0.07760871 0.082898684
-0.084794 0.06920812 0.11130316 0.077369146 0.04363281 -0.07094907 -0.053388752 -0.00470537
-0.06027265 -0.03415887 0.1269442 0.033069745 0.06684469 0.070380494 -0.05540977 0.13051935
-0.045484778 -0.012116782 0.054801833 0.024496373 0.026411694 0.108958 0.057915505 -0.08629938
-0.054641653 -0.040278867 0.006440481 -0.12923136 0.010528935 -0.05907743 0.10245944 0.11020855
0.05047392 -0.054977078 0.016298069 0.081072 0.019302348 0.0009595548 0.03818684 0.0032908833
0.12537093 0.10781117 0.01276142 0.00061877316 -0.04966654 0.042862516 0.12135248 0.049807042
-0.06323381 0.09697217 -0.011865342 0.008486271 0.16786095 0.069364876 -0.038016878 -0.105568014
-0.1406272 -0.041413285 -0.025722858 0.084172614 -0.014647238 -0.086063795 -0.032454047 0.12857409
0.15443511 -0.009830988 -0.031937227 0.10007202 0.11441701 -0.084826484 -0.0274556 0.1081655
00000000: 0e5b 423e b500 203d 3ce3 0cbd db30 323d
00000010: b29e 103e a965 e53d bf07 8d3c 976b bd3c
00000020: aa26 153d dc1d 3a3d 0a89 98bd 69a9 80bd
00000030: 3840 9f3c 6a80 e63d 78bd f33b 87e6 8a3a
00000040: 80d4 a53d 3e4d 9d3d 575b 88bd 3c9f fbbc
00000050: 337f 98bd 63ab 433e 387f 003e bb90 d43d
00000060: 4b99 8cbc 3b75 38bd 518e 8ebd a80f d2bb
00000070: 9f56 873e fc10 1a3d cbd1 6dbd 709a e13d
00000080: 94a3 4dbd 8e1f 9cbd cdb7 94bd fc66 013d
00000090: 0413 1a3e 81e2 04bd b34f 2d3d 617a 263d
000000a0: 5e72 2bbd 6577 8abd c40a 013e 8c7e d5bd
000000b0: 4a52 fbbd 6c45 163e efbf a5bd e6ac 073e
000000c0: 2bda 273e 8cf8 4e3d fb5c f63d 7f35 8ebd
000000d0: dd52 82bd 999a 18bb e480 0ebe d194 2839
000000e0: aa55 cfbd 10c7 8b3d d6a5 31bd f7ee 1cbd
000000f0: f984 9dbd 4168 723d ceb7 33bd 33b3 7fbd
00000100: f613 4dbc cfde 073e 3e49 153e 021c b4bd
00000110: da03 423d f671 273d f376 813d 756d 133e
00000120: a44b 943d a4b1 ff3d 7f56 e93d 4036 26bd
00000130: b03f 2f3e 73a3 cf3d a572 12bb edc9 f13c
00000140: 5bce 12be a6b3 6e3c f0cb 263e 03f2 5fbd
00000150: 2900 163e c782 d3bb e96a 953d 2166 9c3d
00000160: 1ee7 06bd 04fe 94bd 296b 133c b306 0f3d
00000170: c47a cb3d d90e c23c 617d 163e 72d3 003d
00000180: e57a 18bd 9acd 1bbd fd7d e5bd f8f5 323c
00000190: bf4a 983d 6373 08be a2b1 1a3d c09d 373c
000001a0: 131e 523d 7f91 d3bd f13b 7fbd 3812 883d
000001b0: 963b 433d 52ff 973d b750 da3c a054 35bd
000001c0: 05b7 313d 62c7 b23d 8930 c63d c742 5f3c
000001d0: 6461 93bd 3ce3 67bc 51f1 9ebd c9c6 a93d
000001e0: 7aa8 adbd fdbc 8d3d e9f2 e33d b773 9e3d
000001f0: 51b8 323d bf4d 91bd 2aae 5abd 812f 9abb
00000200: 74e0 76bd 2cea 0bbd a9fd 013e 2474 073d
00000210: dee5 883d a623 903d 5bf5 62bd dda6 053e
00000220: 3f4e 3abd 7885 46bc e377 603d 9eac c83c
00000230: 565d d83c 5f25 df3d cf38 6d3d bbbd b0bd
00000240: edcf 5fbd 74fb 24bd ac0a d33b 3a55 04be
00000250: 8e81 2c3c 2dfb 71bd 41d6 d13d 05b5 e13d
00000260: bebd 4e3d a52f 61bd 8783 853c 1409 a63d
00000270: f51f 9e3c a28a 7b3a ce69 1c3d dcab 573b
00000280: 3d61 003e 1acc dc3d 4615 513c 2a35 223a
00000290: 246f 4bbd 9b90 2f3d a687 f83d 7802 4c3d
000002a0: ba80 81bd 5899 c63d da66 42bc 000a 0b3c
000002b0: bee3 2b3e 2c0f 8e3d 96b7 1bbd 0b34 d8bd
000002c0: 9400 10be faa0 29bd beb8 d2bc b162 ac3d
000002d0: f8fa 6fbc 3742 b0bd 89ee 04bd eda8 033e
000002e0: 3d24 1e3e 2712 21bc 9cd0 02bd 8ff2 cc3d
000002f0: 7753 ea3d 82b9 adbd 91ea e0bc e085 dd3d

lstm.weight_ih_l1 f4 [192, 48]
0.13688913 -0.05277912 0.030824682 0.09512665 -0.10545615 0.10831658 -0.018609233 -0.121229775
0.09457394 0.049827818 -0.00017396199 -0.01675147 -0.06894793 0.16850175 -0.017370583 0.12769254
0.004292532 0.15221317 -0.15812618 0.007249005 -0.02368257 -0.16647309 0.031123737 0.110416204
0.08165232 -0.04021778 -0.102947354 0.12820104 -0.11765749 0.060339045 -0.14254503 0.052828543
0.09733043 0.06348143 -0.011451346 0.09379211 -0.1255027 0.008903396 -0.08897369 -0.2029912
0.09574197 0.06707085 0.12436821 -0.011800226 0.033611733 -0.15871303 -0.012763297 -0.04860713
-0.16387326 0.004669205 -0.1135035 0.059817817 -0.17210647 0.056239247 -0.12975991 0.09801674
-0.16209377 -0.07010403 0.14864969 0.10093818 0.103233814 0.07982375 -0.032383505 -0.09498932
-0.12204607 -0.0592338 -0.092899404 0.07036889 0.06812081 0.09251671 -0.091727346 -0.06398781
-0.12539776 -0.0173806 -0.11904432 0.08546755 0.07270217 -0.10529453 0.12033604 -0.0698473
0.08411536 0.016073616 0.011637076 -0.15097049 0.15445113 -0.070163995 0.107170396 0.058195744
0.16708851 -0.03954992 0.04772588 0.019101309 0.14842129 -0.12430498 -0.0366208 0.113678575
-0.083037786 -0.05403379 -0.028718494 -0.09325791 -0.028102027 0.12945238 -0.17121635 0.15935384
-0.09430954 -0.020780051 0.07879479 -0.11255077 0.086821415 0.17168525 -0.033510268 0.006990519
-0.098882996 -0.12040859 -0.16704734 0.05481529 0.0883737 -0.0825314 0.10887433 0.08003931
-0.17434537 -0.15465097 -0.03793178 -0.12828189 0.18773633 -0.019744623 0.029368166 -0.08520312
-0.009461921 -0.044272162 -0.117338404 -0.0715841 -0.081949115 0.036945283 0.018276984 0.062423106
0.058330275 0.09039699 0.0032168105 -0.04972006 0.057222728 -0.063894786 -0.12234265 0.07881823
-0.021080634 0.01151708 0.10601011 -0.011404395 0.00993839 0.008378328 -0.068968624 -0.042305198
-0.14424922 -0.15682606 0.046935182 0.115989 0.076862775 0.12507066 -0.13889864 0.014714813
0.027314156 -0.061328698 -0.16263849 -0.050365686 -0.046847686 0.07304639 0.16826858 -0.05160594
0.10356357 0.10563934 0.096817255 0.031532086 -0.053502362 -0.047827728 -0.12850504 -0.040091652
0.0069887973 -0.18045293 -0.060565576 -0.10802379 -0.11076857 -0.11553364 0.047703072 -0.10731596
0.06659569 0.069282435 0.07437607 0.11907844 -0.0996874 0.0923223 -0.026473355 0.012800744
0.013473822 0.06791804 -0.10711843 0.13750447 -0.07488052 0.12720169 0.06822104 0.09355113
-0.004371863 -0.13937387 0.007637594 0.14680459 -0.120939426 -0.03945445 0.11688556 -0.03243458
0.07775078 -0.030893123 -0.09107767 0.036342546 0.12274763 -0.083082855 -0.08461991 0.025829978
-0.0884274 0.11284533 -0.09290071 -0.13782893 -0.27345812 -0.15409645 0.028850425 0.08325008
0.06452113 -0.09278492 -0.13487498 0.096622355 0.08615408 0.11028488 0.01600124 -0.10759041
0.080336586 -0.0695919 0.11050338 0.12361836 -0.037505466 0.12298085 0.014969564 -0.045618776
0.14545545 -0.0036787794 0.08935117 0.19187668 0.08916572 -0.015427975 0.061137903 -0.11839674
0.21223982 -0.07972446 -0.08930174 0.03969189 0.1606845 -0.13736387 0.09010032 0.13851035
00000000: aa2c 0c3e eb2e 58bd 0b84 fc3c c3d1 c23d
00000010: 65f9 d7bd 15d5 dd3d 6472 98bc 5147 f8bd
00000020: fbaf c13d 4118 4c3d 9169 36b9 613a 89bc
00000030: 9334 8dbd b98b 2c3e c14c 8ebc d5c1 023e
00000040: 5ea8 8c3b c5dd 1b3e d4eb 21be 1089 ed3b
00000050: f301 c2bc ec77 2abe 35f7 fe3c e421 e23d
00000060: 5539 a73d 66bb 24bd 10d6 d2bd 2247 033e
00000070: 69f6 f0bd 1326 773d 53f7 11be be62 583d
00000080: 2d55 c73d 8d02 823d 6d9e 3bbc 1416 c03d
00000090: c883 00be 8ddf 113c d737 b6bd eddc 4fbe
000000a0: 5e14 c43d 715c 893d c3b4 fe3d bc55 41bc
000000b0: 75ac 093d ab85 22be 261d 51bc 4518 47bd
000000c0: 64ce 27be 2100 993b 8674 e8bd 8703 753d
000000d0: ae3c 30be 205b 663d c8df 04be 00bd c83d
000000e0: e9fb 25be b492 8fbd a037 183e adb8 ce3d
000000f0: 406c d33d a27a a33d 91a4 04bd c389 c2bd
00000100: 4af3 f9bd 249f 72bd 0b42 bebd 911d 903d
00000110: ec82 8b3d 6779 bd3d 8cdb bbbd 0a0c 83bd
00000120: 4568 00be c361 8ebc 82cd f3bd 9c09 af3d
00000130: e0e4 943d a9a4 d7bd be72 f63d 1a0c 8fbd
00000140: ad44 ac3d d1ac 833c 6fa9 3e3c 0298 1abe
00000150: 7028 1e3e 24b2 8fbd 277c db3d a95e 6e3d
00000160: 4019 2b3e 19ff 21bd 367c 433d 597a 9c3c
00000170: c0fb 173e 9c93 febd b1ff 15bd 50d0 e83d
00000180: b70f aabd 8952 5dbd 0c43 ebbc 01fe bebd
00000190: 3936 e6bc 2a8f 043e 5753 2fbe a72d 233e
000001a0: 5c25 c1bd ed3a aabc 2a5f a13d 0581 e6bd
000001b0: 6dcf b13d 42ce 2f3e 1042 09bd b910 e53b
000001c0: 2b83 cabd c798 f6bd 750e 2bbe ff85 603d
000001d0: 45fd b43d 3906 a9bd 81f9 de3d a6eb a33d
000001e0: 9887 32be d35c 1ebe 5b5e 1bbd 545c 03be
000001f0: f43d 403e 7abf a1bc 8295 f03c f97e aebd
00000200: 2c06 1bbc ba56 35bd 1e4f f0bd af9a 92bd
00000210: f0d4 a7bd f053 173d 9db9 953c 5faf 7f3d
00000220: baeb 6e3d 0f22 b93d 20d1 523b 43a7 4bbd
00000230: 6162 6a3d 45db 82bd c98e fabd 746b a13d
00000240: 4bb1 acbc 22b2 3c3c d41b d93d 80d9 3abc
00000250: a1d4 223c 4145 093c 6c3f 8dbd 3748 2dbd
00000260: 11b6 13be 0397 20be 1b3f 403d a48b ed3d
00000270: 3b6a 9d3d 8612 003e 723b 0ebe 6616 713c
00000280: f0c1 df3c cd33 7bbd b48a 26be 404c 4ebd
00000290: 5ce3 3fbd 5999 953d 994e 2c3e c060 53bd
000002a0: 2319 d43d 7059 d83d 2048 c63d ca27 013d
000002b0: 4b25 5bbd 02e7 43bd d396 03be 2537 24bd
000002c0: 4802 e53b a7c8 38be 9c13 78bd 943b ddbd
000002d0: a2da e2bd e79c ecbd 4c64 433d 78c8 dbbd
000002e0: 5263 883d f3e3 8d3d 7b52 983d 66df f33d
000002f0: e828 ccbd 7913 bd3d a6de d8bc 36ba 513c
00000300: 4ec1 5c3c 9d18 8b3d e860 dbbd f9cd 0c3e
00000310: f55a 99bd 2941 023e 79b7 8b3d bc97 bf3d
00000320: d841 8fbb 06b8 0ebe c844 fa3b f153 163e
00000330: 17af f7bd fd9a 21bd b261 ef3d 1fda 04bd
00000340: cd3b 9f3d 9313 fdbc ee86 babd ecdb 143d
00000350: 1c63 fb3d 5827 aabd 344d adbd 6499 d33c
00000360: 6d19 b5bd 741b e73d ba42 bebd 0723 0dbe
00000370: b402 8cbe 76cb 1dbe ba57 ec3c 057f aa3d
00000380: a723 843d 0506 bebd ab1c 0abe f1e1 c53d
00000390: 8d71 b03d 0add e13d 0815 833c 5c58 dcbd
000003a0: 8287 a43d 3386 8ebd 994f e23d 9f2b fd3d
000003b0: 559f 19bd 62dd fb3d e742 753c c1da 3abd
000003c0: 46f2 143e ad17 71bb bffd b63d 527b 443e
000003d0: 849c b63d 9ec5 7cbc bd6b 7a3d fd79 f2bd
000003e0: 6555 593e 9446 a3bd d5e3 b6bd f793 223d
000003f0: 7a8a 243e 1da9 0cbe 8486 b83d a8d5 0d3e

lstm.weight_hh_l1 f4 [192, 48]
-0.12528983 0.06481657 -0.11242393 -0.051618934 0.11908639 0.05635484 -0.14317521 -0.054095946
-0.11234127 0.08483222 0.026724162 -0.037340745 -0.11911217 0.09448941 0.14642641 -0.15734208
-0.07796986 -0.09172003 -0.15034816 -0.15153383 0.06936237 -0.07500181 0.12280175 -0.08688834
-0.032289404 0.06750052 -0.04159899 -0.05385741 -0.14803503 -0.08514211 -0.016499685 0.092061855
-0.08413287 -0.122528635 0.12434463 0.08616799 -0.15872012 -0.08243063 0.11379951 -0.03699583
0.0445738 0.09165445 -0.06263273 -0.100644544 0.10000691 -0.1488633 -0.12230215 -0.11137865
0.05801706 0.13451502 -0.049757466 -0.027713897 0.016101986 0.05225286 0.120012976 -0.062250294
-0.10183389 0.05277765 0.10118216 0.096135594 -0.10767112 -0.0048807333 -0.10484458 -0.015310879
-0.0013575006 -0.003968454 0.027378598 -0.0016188866 0.08983778 -0.036198042 0.09353301 0.12692614
-0.074967 -0.047657844 -0.12368811 -0.015676616 0.014219596 0.14613102 -0.114884764 -0.0331109
0.046214957 0.09586546 0.09137193 0.062568575 -0.10860017 -0.0107935155 0.13756356 -0.05659774
-0.099687 -0.052135866 -0.14520429 -0.026778424 -0.021029618 -0.03272788 -0.1324354 -0.07875621
-0.12439037 0.073890656 0.08193097 0.07268188 0.0552408 0.054899916 0.1330771 0.11909166
0.09934148 -0.09777647 -0.04009734 0.13418023 -0.1288806 0.10113096 -0.052622586 0.030990748
-0.05097704 -0.07956295 0.07866444 -0.09754708 -0.016630206 0.029087882 0.023841495 0.0018893847
-0.021216897 -0.0033810223 -0.15622999 0.018861067 0.036102936 -0.11692531 -0.1816915 -0.11475413
0.04444639 0.055263907 0.04054583 -0.07162989 0.07549189 -0.068545 0.0070557273 -0.07855803
-0.029908855 -0.06772212 -0.02203058 0.07436822 -0.07569745 -0.08759066 -0.04602783 0.122731596
-0.001175279 -0.11094444 -0.04795828 0.102501914 -0.013575495 -0.002925632 -0.08350402 0.08051575
-0.15302098 -0.13002516 -0.06488778 0.054018833 -0.1161799 -0.108730435 0.0014909578 -0.05948176
-0.04437599 -0.05136915 0.07163831 0.10252397 -0.07449816 0.08562682 -0.06172728 -0.023371954
0.08540081 -0.046733987 -0.018709997 0.13411343 0.11673269 -0.12049206 -0.082604066 -0.089559585
-0.09511833 0.06306897 0.12928057 0.09304227 0.040402815 -0.16190027 -0.013670477 -0.10442967
0.025260959 -0.0131710805 -0.022559738 -0.13672462 0.0118496325 -0.08536574 0.15847962 0.14705499
-0.108640194 0.024232842 -0.0677961 0.1243739 0.09074808 0.12594172 0.036025085 -0.053807206
-0.056705307 0.13511337 0.12792537 0.088983506 0.0019890897 0.08709924 0.07238138 -0.0085013015
0.0036602132 0.10214084 -0.11539125 -0.09411297 0.08323557 0.09878195 0.035517335 -0.042964514
0.003046164 0.09513225 -0.005424599 0.10242934 -0.08796061 0.1068431 -0.0821685 0.019966332
-0.09738476 -0.121238284 -0.0927764 -0.040244006 -0.0031617524 0.027643455 -0.10766493 -0.056727763
0.035693686 0.034491584 0.113702565 0.084680706 -0.048169393 0.07025678 -0.097696766 -0.12362586
0.0030911302 -0.0075945696 -0.1441985 0.04020763 -0.079622895 0.020081675 0.013880834 0.07500546
-0.06457604 -0.086245455 -0.10928532 -0.12330385 -0.096590996 0.07125273 -0.13461143 0.10789383
00000000: fa4b 00be 8dbe 843d 843e e6bd 606e 53bd
00000010: 91e3 f33d 55d4 663d 869c 12be b693 5dbd
00000020: 2e13 e6bd 84bc ad3d a1ec da3c 9cf2 18bd
00000030: 15f1 f3bd aa83 c13d cef0 153e 481e 21be
00000040: a9ae 9fbd b6d7 bbbd def4 19be af2b 1bbe
00000050: dc0d 8e3d 8d9a 99bd 7c7f fb3d 84f2 b1bd
00000060: e541 04bd b63d 8a3d b463 2abd 9699 5cbd
00000070: 7f96 17be fd5e aebd 592a 87bc ed8a bc3d
00000080: db4d acbd 4bf0 fabd 66a8 fe3d d878 b03d
00000090: 8787 22be 64d1 a8bd b80f e93d f088 17bd
000000a0: 0493 363d 54b5 bb3d 9745 80bd ba1e cebd
000000b0: 6cd0 cc3d 9f6f 18be 8d79 fabd 7d1a e4bd
000000c0: 4ca3 6d3d 4ebe 093e 7cce 4bbd 4108 e3bc
000000d0: 50e8 833c 1807 563d 5dc9 f53d 2afa 7ebd
000000e0: 498e d0bd 612d 583d 9838 cf3d bde2 c43d
000000f0: ad82 dcbd 8fee 9fbb c1b8 d6bd 7bda 7abc
00000100: 29ee b1ba ce09 82bb 1549 e03c d230 d4ba
00000110: dffc b73d 6644 14bd 3c8e bf3d edf8 013e
00000120: 4c88 99bd df34 43bd 3150 fdbd 3f6c 80bc
00000130: 4ff9 683c 5fa3 153e b448 ebbd 4c9f 07bd
00000140: e54b 3d3d 1c55 c43d 3521 bb3d f423 803d
00000150: c469 debd 49d7 30bc 76dd 0c3e 08d3 67bd
00000160: b328 ccbd 6b8c 55bd 6fb0 14be 6d5e dbbc
00000170: 4e46 acbc ab0d 06bd 259d 07be f04a a1bd
00000180: 61c0 febd fc53 973d 6dcb a73d 3dda 943d
00000190: 2d44 623d bcde 603d 5d45 083e 54e6 f33d
000001a0: 8c73 cb3d 083f c8bd 1c3d 24bd 8b66 093e
000001b0: 47f9 03be c01d cf3d c88a 57bd 4fe0 fd3c
000001c0: 4dcd 50bd e6f1 a2bd d21a a13d c3c6 c7bd
000001d0: 123c 88bc b649 ee3c 3d4f c33c 3ba5 f73a
000001e0: 0fcf adbc 2494 5dbb c1fa 1fbe 8682 9a3c
000001f0: ace0 133d 8976 efbd 560d 3abe 3704 ebbd
00000200: 6b0d 363d 685c 623d 6213 263d b1b2 92bd
00000210: 7e9b 9a3d 5261 8cbd bb33 e73b 08e3 a0bd
00000220: 6a03 f5bc e5b1 8abd 7a79 b4bc 5e4e 983d
00000230: 4407 9bbd bb62 b3bd ae87 3cbd b45a fb3d
00000240: d20b 9aba d736 e3bd e76f 44bd 86ec d13d
00000250: c16b 5ebc f6bb 3fbb 2804 abbd 71e5 a43d
00000260: 88b1 1cbe 5125 05be e2e3 84bd da42 5d3d
00000270: baef edbd 10ae debd 3e6c c33a 25a3 73bd
00000280: 99c3 35bd 7568 52bd 1bb7 923d 16f8 d13d
00000290: 7e92 98bd 1d5d af3d bfd5 7cbd 8a76 bfbc
000002a0: 9fe6 ae3d 236c 3fbd b545 99bc 0855 093e
000002b0: 8c11 ef3d 8bc4 f6bd 522c a9bd 046b b7bd
000002c0: 66cd c2bd 4e2a 813d 2062 043e f28c be3d
000002d0: 6c7d 253d 2fc9 25be 23fa 5fbc 39df d5bd
000002e0: 12f0 ce3c 84cb 57bc 33cf b8bc 8a01 0cbe
000002f0: f624 423c 3cd4 aebd 7b48 223e 9595 163e
00000300: c07e debd f483 c63c afd8 8abd beb7 fe3d
00000310: 21da b93d def6 003e 0a8f 133d f264 5cbd
00000320: d343 68bd 295b 0a3e defe 023e fc3c b63d
00000330: 635b 023b 1661 b23d b03c 943d 0b49 0bbc
00000340: 30e0 6f3b 372f d13d 3f52 ecbd 4dbe c0bd
00000350: 6977 aa3d 314e ca3d a07a 113d 8ffb 2fbd
00000360: 27a2 473b b2d4 c23d d6c0 b1bb 79c6 d13d
00000370: b124 b4bd 8ed0 da3d f547 a8bd 6f90 a33c
00000380: a971 c7bd c74b f8bd 8e01 bebd e6d6 24bd
00000390: 6735 4fbb 8774 e23c 6e7f dcbd 5f5b 68bd
000003a0: 8b33 123d 0c47 0d3d e4dc e83d 146d ad3d
000003b0: 454d 45bd c9e2 8f3d 3e15 c8bd 8e2f fdbd
000003c0: 8f94 4a3b dedb f8bb c6a8 13be c1b0 243d
000003d0: 5411 a3bd 5382 a43c 706c 633c 769c 993d
000003e0: 7140 84bd 75a1 b0bd fbd0 dfbd bb86 fcbd
000003f0: 80d1 c5bd f4ec 913d 94d7 09be 71f7 dc3d

lstm.bias_ih_l1 f4 [192]
-0.022349875 -0.067043446 -0.019527184 0.08612811 0.037813824 -0.01349182 -0.008180698 0.13802466
0.059931275 0.113390334 -0.11157252 -0.06335502 -0.053271797 -0.117586896 -0.1407645 0.10862304
0.018090282 0.01726155 0.13863227 -0.058624182 -0.03999192 -0.07031689 -0.1248849 0.063636765
0.05195957 -0.01440267 0.04670348 0.10284982 -0.050239246 0.059958838 -0.05312853 -0.1620777
0.17566168 0.12548909 -0.08363656 -0.10290024 -0.017724382 0.11591208 -0.058116768 0.04231823
0.06714206 0.04125498 0.1263038 0.033447847 -0.09340862 -0.0938949 0.06372673 0.08409522
-0.036083218 -0.13471882 0.029513255 0.038811903 -0.0144310035 -0.07959498 -0.08098075 -0.044986002
-0.06921314 -0.004617078 -0.019078113 0.020188536 0.10267867 -0.026292056 -0.030982653 0.12318
-0.0007198981 -0.11756853 0.12106023 0.12278711 -0.022534102 -0.045337524 0.08446738 -0.0554568
0.031085875 -0.05359935 0.12518804 0.115239434 0.1258977 -0.0088187605 -0.07452019 -0.008778613
0.13967954 0.02383183 -0.03662803 -0.017614003 -0.09873281 -0.001348394 -0.009470961 0.110907406
0.027300294 -0.0709071 -0.07011031 0.05737132 -0.039444253 0.12737828 0.014668423 -0.028237754
-0.13247 -0.0021340519 0.052379403 -0.10082519 -0.01970785 -0.021694893 -0.08707231 -0.10054055
-0.10509204 -0.03290727 0.04983598 -0.07937138 -0.12054434 0.044298116 0.04964032 -0.081525914
0.06114039 -0.025191711 0.022223337 0.02637155 -0.12346099 -0.002639703 -0.13152029 0.0990266
0.08186962 0.14724852 -0.075620614 -0.06997923 -0.04462384 -0.06895121 -0.09499452 -0.009377863
0.03861866 0.101211414 -0.09251386 -0.012534849 -0.107866675 -0.06022635 0.10986876 0.12724863
0.033236407 0.04584409 -0.004466713 0.0940235 0.07149999 -0.087329194 -0.14056148 -0.10204082
0.08230527 0.0184426 -0.124138385 0.041847657 0.11286484 0.122211635 0.011002009 -0.033179913
-0.120881215 0.16494574 -0.0017666261 0.036931936 0.08063691 -0.022020653 0.07891673 -0.124827154
-0.1308462 0.026072016 -0.12298052 0.12218244 0.06658382 -0.072881825 0.05068432 0.12514423
0.12742092 -0.05916682 -0.021997113 -0.036754023 0.21015865 -0.04906027 -0.121088184 -0.011849106
0.17207587 0.14194667 0.101095796 -0.016342951 -0.07258134 0.00013782881 -0.12842104 -0.0866266
0.07679307 0.11486545 -0.013508618 0.10141362 -0.06475107 0.123169065 -0.020112118 0.007212085
00000000: 1617 b7bc 134e 89bd 79f7 9fbc ef63 b03d
00000010: abe2 1a3d cb0c 5dbc 5608 06bc 5656 0d3e
00000020: 7f7a 753d 3139 e83d 2280 e4bd 47c0 81bd
00000030: 8733 5abd 66d1 f0bd 9224 10be c275 de3d
00000040: 1232 943c 1868 8d3c 9ef5 0d3e e91f 70bd
00000050: 91ce 23bd 4d02 90bd a8c3 ffbd fe53 823d
00000060: 8fd3 543d 2df9 6bbc 264c 3f3d eda2 d23d
00000070: abc7 4dbd 6697 753d 4d9d 59bd b2f7 25be
00000080: a8e0 333e 3680 003e a549 abbd 5cbd d2bd
00000090: b932 91bc 5063 ed3d d90b 6ebd e155 2d3d
000000a0: c781 893d fbfa 283d c955 013e 9c00 093d
000000b0: 054d bfbd f84b c0bd 2983 823d 1d3a ac3d
000000c0: ffcb 13bd bbf3 09be c8c5 f13c 3bf9 1e3d
000000d0: 0470 6cbc b102 a3bd 3cd9 a5bd 3e43 38bd
000000e0: 9ebf 8dbd dc4a 97bb b449 9cbc 6e62 a53c
000000f0: 3249 d23d 7062 d7bc 55cf fdbc cc45 fc3d
00000100: 8bb7 3cba c5c7 f0bd 6dee f73d cf77 fb3d
00000110: 7099 b8bc d7b3 39bd 3cfd ac3d ab26 63bd
00000120: cea7 fe3c fe8a 5bbd 4b31 003e a702 ec3d
00000130: 54eb 003e 907c 10bc 0b9e 98bd 2cd4 0fbc
00000140: 2708 0f3e f83a c33c 4607 16bd 3e4b 90bc
00000150: 6d34 cabd 98bc b0ba 172c 1bbc 6c23 e33d
00000160: dea4 df3c be37 91bd ff95 8fbd 30fe 6a3d
00000170: 4c90 21bd 746f 023e d353 703c dd52 e7bc
00000180: 37a6 07be 73db 0bbb c98b 563d 707d cebd
00000190: 5b72 a1bc 7db9 b1bc f852 b2bd 34e8 cdbd
000001a0: 7f3a d7bd c6c9 06bd d020 4c3d 768d a2bd
000001b0: f3df f6bd f171 353d a653 4b3d 0ff7 a6bd
000001c0: 586e 7a3d d95e cebc b70d b63c 2609 d83c
000001d0: 1ed9 fcbd defe 2cbb 41ad 06be 75ce ca3d
000001e0: 42ab a73d 51c8 163e fbde 9abd 4551 8fbd
000001f0: 7dc7 36bd 4b36 8dbd 7d8c c2bd 9ca5 19bc
00000200: 9a2e 1e3d ee47 cf3d e877 bdbd f85e 4dbc
00000210: 34e9 dcbd e8af 76bd df02 e13d 774d 023e
00000220: e622 083d 03c7 3b3d 815d 92bb 658f c03d
00000230: 966e 923d a6d9 b2bd 59ef 0fbe c7fa d0bd
00000240: aa8f a83d ef14 973c 443c febd 7368 2b3d
00000250: ae25 e73d 184a fa3d c541 343c a9e7 07bd
00000260: 9290 f7bd 89e7 283e 238e e7ba f145 173d
00000270: f724 a53d a864 b4bc 189f a13d 61a5 ffbd
00000280: 8cfc 05be fb94 d53c 36dd fbbd c93a fa3d
00000290: 195d 883d 1143 95bd 5d9a 4f3d cf25 003e
000002a0: a17a 023e e858 72bd 4a33 b4bc 638b 16bd
000002b0: d433 573e 6cf3 48bd 15fd f7bd c122 42bc
000002c0: a834 303e 785a 113e 500b cf3d a7e1 85bc
000002d0: 87a5 94bd 2486 1039 ce80 03be 4969 b1bd
000002e0: af45 9d3d 943e eb3d 4053 5dbc f2b1 cf3d
000002f0: 369c 84bd 1040 fc3d 2bc2 a4bc 5b53 ec3b

lstm.bias_hh_l1 f4 [192]
-0.13020527 -0.0018918558 -0.11245902 -0.07699546 -0.05503018 0.059747174 0.064918734 -0.08064943
-0.024082063 0.1444893 -0.029074715 0.009664656 0.15682368 -0.0371845 -0.07164114 0.014951384
0.03288215 -0.09815373 -0.08273694 0.10331468 -0.12770422 -0.040227454 0.1175852 0.060000587
0.07082315 -0.117405355 -0.10225016 -0.1228501 0.13308732 -0.022187172 0.0012003278 -0.02997632
0.14818335 -0.008474488 -0.07751974 0.03214276 -0.1009075 -0.11663047 0.088629246 -0.024778416
0.05485271 0.021741254 -0.08849903 0.047824297 -0.060019508 0.07685526 -0.06325523 -0.110783726
0.05793268 0.14473921 -0.050926156 0.059075244 -0.12923385 0.09170974 -0.07209815 0.13637237
-0.1084184 -0.0033549655 -0.048604067 0.06877381 0.10333133 -0.005193062 -0.11440082 0.040079046
0.13531381 -0.048682477 -0.014675792 0.15042675 -0.07204314 -0.08483176 0.061993767 -0.020796103
-0.14189138 -0.08023135 -0.037769683 -0.03847013 -0.06936813 -0.034356162 0.07388182 -0.013129116
0.05845812 0.045099705 0.016908968 0.09028272 -0.10375587 0.12971224 0.0759243 0.13870652
-0.07882166 0.074642055 0.0075746262 0.12908283 -0.09429388 0.035731994 -0.16122642 -0.032412335
0.08507051 0.06904199 0.03359622 0.054566793 -0.08741723 -0.12739728 -0.0935867 0.11564955
0.10959257 -0.06601089 0.10957272 0.031429775 0.13510476 0.12614648 0.06095427 -0.017937174
0.07117332 0.06833713 -0.090493664 -0.019131348 0.076853655 -0.044802245 -0.11391663 0.055923562
0.07796161 -0.03401578 -0.105295256 -0.036479935 0.07771393 0.087246984 0.10863779 -0.084780104
0.0073368843 -0.03996709 -0.040898055 -0.035308473 -0.065556176 -0.0896718 -0.03676798 -0.04329798
0.08143267 0.08583455 -0.0027338918 -0.036296777 -0.0492883 -0.021301331 -0.011012027 0.098418884
-0.038745303 0.13428937 -0.12100531 0.14076217 -0.14173806 -0.0585436 0.047035128 -0.040019877
-0.09541031 -0.030707935 -0.12333139 0.10693164 -0.0052840104 -0.011945231 -0.05011751 -0.10121562
-0.078079924 0.01020578 -0.043088973 -0.10368127 -0.05254899 0.108201034 0.08905738 -0.0606088
-0.116333164 0.15206274 -0.14559075 0.06604569 0.17611797 -0.07818661 0.03242938 -0.047196783
-0.044808738 0.13581577 -0.05446247 0.06890509 0.09987702 0.018174427 0.03658773 -0.13819787
0.11490998 0.11462146 0.14384224 -0.032763597 0.14688554 -0.00525202 -0.014347874 -0.08049156
00000000: 8854 05be 26f8 f7ba ea50 e6bd ccaf 9dbd
00000010: 5367 61bd 74b9 743d 1df4 843d 872b a5bd
00000020: bf47 c5bc 01f5 133e 192e eebc 8158 1e3c
00000030: 6396 203e c64e 18bd 97b8 92bd a6f6 743c
00000040: 6faf 063d d304 c9bd fc71 a9bd a696 d33d
00000050: e5c4 02be 8bc5 24bd 82d0 f03d 2dc3 753d
00000060: ba0b 913d 3872 f0bd 8868 d1bd d598 fbbd
00000070: 0b48 083e dfc1 b5bc 5154 9d3a e690 f5bc
00000080: 60bd 173e 94d8 0abc abc2 9ebd 20a8 033d
00000090: 97a8 cebd f5db eebd 4083 b53d 1bfc cabc
000000a0: 3cad 603d b71a b23c fb3e b5bd 69e3 433d
000000b0: 04d7 75bd 4a66 9d3d f58b 81bd 94e2 e2bd
000000c0: d14a 6d3d 8436 143e f297 50bd e2f8 713d
000000d0: e155 04be 51d2 bb3d 32a8 93bd 33a5 0b3e
000000e0: 770a debd fbde 5bbb 0f15 47bd 49d9 8c3d
000000f0: 609f d33d 902a aabb fa4a eabd ed29 243d
00000100: b48f 0a3e 4767 47bd bc72 70bc 7809 1a3e
00000110: 5b8b 93bd 46bc adbd 2ded 7d3d 975c aabc
00000120: f94b 11be 5650 a4bd 62b4 1abd db92 1dbd
00000130: e110 8ebd 0cb9 0cbd 5a4f 973d 811b 57bc
00000140: c871 6f3d 78ba 383d ad84 8a3c 26e6 b83d
00000150: f57d d4bd 49d3 043e 337e 9b3d 1509 0e3e
00000160: 406d a1bd efdd 983d 9234 f83b 4a2e 043e
00000170: 261d c1bd b65b 123d 8a18 25be ccc2 04bd
00000180: 7339 ae3d e365 8d3d 319c 093d 6e81 5f3d
00000190: ce07 b3bd 6f74 02be 62aa bfbd acd9 ec3d
000001a0: 1272 e03d b830 87bd aa67 e03d 82bc 003d
000001b0: e758 0a3e 8b2c 013e 2fab 793d fbf0 92bc
000001c0: 51c3 913d 56f4 8b3d be54 b9bd 58b9 9cbc
000001d0: 7365 9d3d 8f82 37bd 1f4d e9bd 1b10 653d
000001e0: 56aa 9f3d 2154 0bbd 0aa5 d7bd fc6b 15bd
000001f0: 7b28 9f3d 8cae b23d 7d7d de3d 31a1 adbd
00000200: 3f6a f03b 88b4 23bd b884 27bd 9e9f 10bd
00000210: 5142 86bd d9a5 b7bd 059a 16bd 3959 31bd
00000220: 2cc6 a63d 06ca af3d 182b 33bb eeab 14bd
00000230: 87e2 49bd 2180 aebc ca6b 34bc d78f c93d
00000240: 65b3 1ebd 2783 093e a2d1 f7bd f523 103e
00000250: c823 11be 6acb 6fbd e8a7 403d e2eb 23bd
00000260: 7b66 c3bd 358f fbbc 2b95 fcbd fafe da3d
00000270: 7e25 adbb eeb5 43bc 0548 4dbd 234a cfbd
00000280: 5ee8 9fbd 2536 273c 107e 30bd d856 d4bd
00000290: 9c3d 57bd 8198 dd3d b763 b63d ef40 78bd
000002a0: 1540 eebd 56b6 1b3e be15 15be f642 873d
000002b0: 4558 343e 4d20 a0bd abd4 043d 6a51 41bd
000002c0: 5e89 37bd 4a13 0b3e 0a14 5fbd 1d1e 8d3d
000002d0: 538c cc3d 89e2 943c 04dd 153d be83 0dbe
000002e0: ec55 eb3d a8be ea3d 614b 133e 1f33 06bd
000002f0: 2a69 163e 2319 acbb 5813 6bbc c2d8 a4bd

lstm.weight_ih_l2 f4 [192, 48]
0.065426044 -0.10166659 -0.14562026 0.025212107 0.10504308 0.019065896 0.05762811 0.12820692
-0.124045014 -0.097675964 0.006091286 0.13054736 -0.11685477 -0.029006917 -0.10695593 0.071824335
-0.1303133 -0.06150182 0.077585794 -0.13921663 -0.09140967 -0.08514774 0.12483779 0.006547833
-0.04985459 -0.13064042 0.08656841 -0.05435998 -0.08821118 -0.11595843 -0.1101365 -0.09237171
0.0053736237 -0.08960816 0.03296539 -0.13455111 0.05968668 0.03298512 0.08259222 -0.088508576
0.09023723 -0.11113709 0.08279718 0.124325864 -0.1184293 -0.12511109 0.01133908 0.06149478
-0.0559981 -0.10822139 -0.12913398 -0.028033292 0.051921725 0.036404904 -0.076513164 0.13110314
-0.061326735 -0.0930964 -0.024879217 0.08114153 -0.13193643 -0.029255869 0.13652667 0.018666102
-0.09425244 -0.026679546 0.12120893 0.07732611 -0.10089545 0.07315559 0.102572866 -0.17309563
0.12794401 0.090334006 -0.004335439 0.08182215 0.0061183167 -0.087205306 0.19317718 -0.07021554
0.05050367 -0.11511775 0.02389021 0.089370504 0.08648269 0.029971194 -0.09607534 -0.07246958
0.043872368 -0.13370427 -0.09869809 -0.103440925 -0.09907321 0.15420456 -0.06208492 -0.021978691
0.09896274 0.10476473 0.06310719 -0.123822965 0.17010057 -0.028278708 -0.10536459 -0.020621533
-0.0653726 0.00070571265 -0.024596816 -0.04242416 0.09743513 -0.05306451 -0.02285939 0.098410256
-0.13026331 0.018747741 -0.0024565062 -0.014698068 0.14682275 -0.107563846 -0.013134696 -0.13047628
-0.05834885 0.15487672 0.0073845517 -0.041407622 0.14865567 -0.1764664 0.15110058 -0.05077073
-0.112926275 0.011004431 0.15921833 0.030346772 0.13645613 0.13719371 -0.13469748 0.08921312
-0.10465529 -0.03249814 0.10649068 0.12539357 0.012944206 0.11307462 -0.13238597 -0.048219606
-0.072800286 -0.09422172 -0.044869818 0.04167972 0.1135199 -0.0808942 0.019943384 0.1212422
-0.030733533 -0.117098644 0.042312786 0.0878389 -0.013568733 0.12478849 -0.084111415 0.08784074
0.07393133 0.015466245 -0.1192625 -0.007411365 0.06786414 0.05659544 -0.123926945 -0.0046338476
0.01634964 -0.16091864 0.017270522 -0.035153896 -0.15028882 0.04047474 -0.041682508 -0.08511361
0.11991297 0.12884805 0.027926376 0.040439676 -0.11845885 -0.09775961 0.13153 0.12804824
-0.10135294 0.066668384 -0.038347464 -0.1416711 0.008671693 -0.10352347 -0.053076595 -0.0009812316
-0.08547123 0.07034338 0.023657966 0.10507333 0.096477844 -0.05014637 -0.052759275 -0.07641368
-0.059470452 -0.08890993 -0.054450262 0.120826036 0.035096046 -0.07424286 0.057890393 0.092067756
-0.13072596 -0.11426801 0.04390399 -0.03382913 -0.12591556 -0.0408094 0.0752523 0.12106326
0.15609756 -0.17702076 0.034441695 0.07465552 -0.059031993 0.112786755 -0.02187912 -0.06606055
0.08779443 0.15136676 0.06274762 -0.13036595 0.076038495 0.023337262 0.040830445 0.018899128
-0.13227989 -0.048948176 -0.038237642 0.079351395 0.087335795 -0.11590278 -0.07200694 -0.10924345
-0.023712516 0.00384905 0.03027802 0.14222392 -0.06418243 0.15146995 -0.006625648 0.104219064
-0.111192964 0.032934003 -0.117535986 -0.09632124 -0.13878816 0.12365476 0.10295539 -0.14745586
00000000: 17fe 853d 9336 d0bd 7a1d 15be 9f89 ce3c
00000010: d420 d73d 1530 9c3c 740b 6c3d ad48 033e
00000020: 500b febd 560a c8bd 6999 c73b 35ae 053e
00000030: 8e51 efbd ea9f edbc b60b dbbd a318 933d
00000040: da70 05be 55e9 7bbd 4de5 9e3d ce8e 0ebe
00000050: fe34 bbbd f061 aebd f5aa ff3d 348f d63b
00000060: 5434 4cbd 9ac6 05be c74a b13d 92a8 5ebd
00000070: 10a8 b4bd 9d7b edbd 3f8f e1bd 612d bdbd
00000080: 3915 b03b 7c84 b7bd b706 073d c4c7 09be
00000090: 057a 743d 681b 073d 1c26 a93d fc43 b5bd
000000a0: 4cce b83d d89b e3bd 9191 a93d 8f9e fe3d
000000b0: 108b f2bd 1f1d 00be 8cc7 393c f3e1 7b3d
000000c0: 445e 65bd 2da3 ddbd b33b 04be 13a6 e5bc
000000d0: e0ab 543d 4f1d 153d efb2 9cbd e73f 063e
000000e0: be31 7bbd 53a9 bebd 80cf cbbc 882d a63d
000000f0: 581a 07be 01aa efbc a6cd 0b3e a7e9 983c
00000100: 6c07 c1bd 108f dabc 633c f83d 275d 9e3d
00000110: 46a2 cebd 99d2 953d b911 d23d fb3f 31be
00000120: c103 033e 0901 b93d 4c10 8ebb 5f92 a73d
00000130: 297c c83b b298 b2bd 3dd0 453e 2acd 8fbd
00000140: f0dc 4e3d dbc2 ebbd 67b5 c33c e207 b73d
00000150: d61d b13d 2686 f53c 26c3 c4bd ee6a 94bd
00000160: 83b3 333d c6e9 08be 3922 cabd d6d8 d3bd
00000170: e5e6 cabd cde7 1d3e c24c 7ebd a80c b4bc
00000180: faac ca3d e48e d63d 583e 813d e596 fdbd
00000190: d82e 2e3e c0a8 e7bc 64c9 d7bd 7dee a8bc
000001a0: 12e2 85bd 93ff 383a 437f c9bc f5c4 2dbd
000001b0: 128c c73d 2c5a 59bd 9e43 bbbc 518b c93d
000001c0: bf63 05be dd94 993c 56fd 20bb 2ad0 70bc
000001d0: b458 163e 6f4a dcbd e832 57bc 939b 05be
000001e0: 34ff 6ebd 0198 1e3e 1cfa f13b 0a9b 29bd
000001f0: 3139 183e 9cb3 34be 1cba 1a3e f8f4 4fbd
00000200: e445 e7bd ee4b 343c 210a 233e cb99 f83c
00000210: 28bb 0b3e 827c 0c3e 23ee 09be 5eb5 b63d
00000220: 8355 d6bd c51c 05bd c917 da3d 2c67 003e
00000230: ef13 543c ab93 e73d 3090 07be ec81 45bd
00000240: 5118 95bd 51f7 c0bd 6ac9 37bd 5bb8 2a3d
00000250: 1f7d e83d dcab a5bd 4f60 a33c d54d f83d
00000260: e4c4 fbbc 6ad1 efbd 2c50 2d3d e2e4 b33d
00000270: 644f 5ebc 1c91 ff3d 9b42 acbd d9e5 b33d
00000280: 4f69 973d 2266 7d3c e63f f4bd 09db f2bb
00000290: 5bfc 8a3d 9fd0 673d 69cd fdbd 88d7 97bb
000002a0: aeef 853c dbc7 24be e97a 8d3c 88fd 0fbd
000002b0: 50e5 19be d7c8 253d 47bb 2abd 0b50 aebd
000002c0: ee94 f53d bef0 033e dbc5 e43c 13a4 253d
000002d0: 8e9a f2bd 3136 c8bd cdaf 063e 141f 033e
000002e0: 2192 cfbd 6f89 883d 3b12 1dbd 3b12 11be
000002f0: b713 0e3c 1d04 d4bd d866 59bd ab9c 80ba
00000300: 8a0b afbd 3110 903d 5ace c13c b030 d73d
00000310: 2d96 c53d 4866 4dbd 1c1a 58bd c77e 9cbd
00000320: 4a97 73bd 6916 b6bd 3d07 5fbd a473 f73d
00000330: dfc0 0f3d a40c 98bd 7a1e 6d3d 058e bc3d
00000340: 07dd 05be 5905 eabd acd4 333d 6a90 0abd
00000350: 02f0 00be c227 27bd e11d 9a3d 04f0 f73d
00000360: 0ad8 1f3e ee44 35be bc12 0d3d fee4 983d
00000370: 88cb 71bd befc e63d d73b b3bc c14a 87bd
00000380: 91cd b33d e3ff 1a3e d381 803d a77e 05be
00000390: 12ba 9b3d c92d bf3c d33d 273d 58d2 9a3c
000003a0: 6174 07be e27d 48bd 139f 1cbd fc82 a23d
000003b0: 1cdd b23d 705e edbd 6078 93bd 08bb dfbd
000003c0: c040 c2bc 5840 7c3b 9c09 f83c 26a3 113e
000003d0: 1472 83bd f01a 1b3e f71b d9bb ce70 d53d
000003e0: 23b9 e3bd cee5 063d b5b6 f0bd 1244 c5bd
000003f0: 7c1e 0ebe b53e fd3d 47da d23d abfe 16be
