best_model.pth (torch, 271529 bytes, 18 tensors)

lstm.weight_ih_l0 f4 [192, 5]
0	0xbd5801d6	-0.052736126
1	0x3cc14846	0.023594033
2	0xbdaf8de7	-0.085719876
3	0x3dd91d8d	0.106013395
4	0x3db58b01	0.088644035
5	0xbdf2b56c	-0.1185101
6	0x3df4fb19	0.119619556
7	0x3e161571	0.14656617
8	0xbdb38597	-0.087657146
9	0x3df8d51d	0.12150023
10	0x3d391a01	0.045190815
11	0x3e1d0ff2	0.15338114
12	0x3e1d585c	0.15365738
13	0x3dae1520	0.08500123
14	0x3e2bcfc1	0.1677847
15	0x3dde9567	0.1086834
16	0x3ca4fcb3	0.020140028
17	0x3d3c8b66	0.04603138
18	0x3b304476	0.0026896275
19	0x3e1f643c	0.1556558
20	0x3df2e815	0.118606724
21	0xbc5e9a9d	-0.013586667
22	0x3d220634	0.039556697
23	0xbdaa9128	-0.083284676
24	0x3cbc2cce	0.022970583
25	0x3d3bae42	0.045820482
26	0xbd021c00	-0.031764984
27	0xbd8c3bf4	-0.06847373
28	0xbd4c2aaa	-0.049845375
29	0x3d96c2ac	0.073613495
30	0x3dd59dd8	0.10430497
31	0xbcc2dab7	-0.023785932
32	0xbd65225e	-0.05594098
33	0xbd5faffe	-0.0546112
34	0xbd7fd152	-0.062455483
35	0x3cd70d46	0.026251446
36	0x3e0709ec	0.13187379
37	0x3de010ad	0.10940681
38	0x3d83e079	0.06439299
39	0xbdecf74b	-0.11570605
40	0x3e11d7b3	0.14242439
41	0xbd2b7c4a	-0.04186658
42	0x3dc32d95	0.095301785
43	0x3e17e4b7	0.14833342
44	0xbd811747	-0.06303268
45	0x3c8d1f83	0.01722694
46	0x3d6179d7	0.055047836
47	0x3df068f7	0.117387705
48	0x3dc85a1d	0.09782813
49	0x3e01ce97	0.12676464
50	0x3d163121	0.036667947
51	0x3d5cca3b	0.0539038
52	0xbd8c6e26	-0.06856947
53	0x3dbefdf7	0.09325784
54	0xbd10e3de	-0.03537356
55	0x3d69b5d1	0.05705816
56	0x3e0dd7c9	0.13851847
57	0xbdce24d1	-0.10065616
58	0x3d1aadae	0.03776329
59	0x3b3dcdd0	0.0028961785
60	0xbd3d87cd	-0.046272088
61	0x3e268695	0.16262276
62	0x3e0b87b7	0.1362599
63	0x3d2b6099	0.04184017
64	0x3daed177	0.08536046
65	0x3e1b9b6c	0.15196007
66	0xbd3923ca	-0.045200147
67	0x3dfe5e8a	0.12420376
68	0x3d2f6300	0.042819023
69	0xbdc2e782	-0.09516813
70	0x3e0ba526	0.13637218
71	0x3d95e1ed	0.073184825
72	0xbe153e2b	-0.14574496
73	0xbd57332f	-0.052539047
74	0x3ddeac64	0.10872725
75	0x3df2b937	0.11851733
76	0x3d2416ea	0.040060915
77	0xbde23402	-0.11045076
78	0x3de19319	0.11014385
79	0x3dfe4553	0.12415566
80	0xbde75b5a	-0.11296721
81	0x3e2dea22	0.16983846
82	0xbd2dc333	-0.042422485
83	0xbd87deb4	-0.06634274
84	0x3d977336	0.073950216
85	0xbd42dc67	-0.047573473
86	0xbd5eadf0	-0.0543651
87	0x3c3575ba	0.0110754315
88	0x3e1a34ef	0.15059255
89	0x3e030573	0.12795047
90	0xbd751619	-0.059835527
91	0x3d7c40d8	0.061585277
92	0x3e0a248c	0.13490504
93	0x3d3b081f	0.04566204
94	0xbdea63b5	-0.11444799
95	0xbd09913e	-0.03358578
96	0x3d1158fc	0.035485253
97	0x3e028600	0.1274643
98	0x3d573ae1	0.052546386
99	0xbd0746ad	-0.033026386
100	0xbcf20ff6	-0.029548626
101	0xbccdfcbe	-0.02514493
102	0xbce0a158	-0.027420685
103	0xbcf2b9db	-0.029629638
104	0x3e1e7d1c	0.15477413
105	0x3d996467	0.07489853
106	0x3ddea57d	0.10871408
107	0xbdd7e572	-0.1054181
108	0x3e0162d8	0.12635362
109	0x3a9dcca6	0.0012039139
110	0xbc87f3b9	-0.016595708
111	0xbdc9d6b5	-0.09855405
112	0x3da24052	0.079224244
113	0x3d8fbd13	0.07018485
114	0x3dd9d561	0.10636402
115	0x3e035149	0.12823977
116	0x3e08df23	0.1336637
117	0xbdb4067a	-0.08790298
118	0xbb7c0f48	-0.0038461257
119	0xbd12016b	-0.035645884
120	0x3d80956a	0.062784985
121	0x3d8a51c5	0.067538776
122	0x3cd95648	0.0265304
123	0xbd18135a	-0.03712783
124	0x3d6874cb	0.056752007
125	0x3dbaf3fd	0.09128568
126	0x3e3fa7cb	0.18716352
127	0xbdbe8a29	-0.09303696
128	0x3dfeffcf	0.12451135
129	0xbc90bf24	-0.017669268
130	0xbd7ff382	-0.062488087
131	0x3ded5edb	0.11590358
132	0xbcca5d40	-0.024702668
133	0x3dffdbcf	0.12493097
134	0xbc801b95	-0.015638152
135	0x3cdf5f63	0.027267164
136	0x3d64e59d	0.05588304
137	0x3c565b54	0.013083298
138	0x3beba33e	0.007191091
139	0xbd727499	-0.059193227
140	0xbd8d18cf	-0.068894975
141	0x3ca29eb4	0.019851066
142	0x3d9b1e86	0.07574181
143	0xbdf310c5	-0.11868433
144	0xbde40230	-0.1113323
145	0x3d17591e	0.036950223
146	0xbd58e00b	-0.05294804
147	0x3dd4b31b	0.10385724
148	0x3de3d8ac	0.11125311
149	0xbc1e3732	-0.009656714
150	0x3d0e4a0a	0.034738578
151	0xbc653a95	-0.013991018
152	0xbd463a7f	-0.04839563
153	0x3db48896	0.08815114
154	0xbe04c058	-0.12963998
155	0x3dcf3528	0.101175606
156	0x3dff1fe9	0.12457258
157	0x3d4e2ae2	0.050333865
158	0xbd0bb08f	-0.034103926
159	0x3dfc4729	0.1231826
160	0x3de662ce	0.11249314
161	0x3bc528ec	0.006016841
162	0x3bb4d0c7	0.0055180523
163	0x3dfb4470	0.12268913
164	0x3d91fb4f	0.071280114
165	0x3e184b7c	0.14872545
166	0x3c61994b	0.013769458
167	0xbd3b3b3b	-0.045710783
168	0x3d1d8557	0.03845724
169	0xbdb29d7b	-0.08721443
170	0x3e02723d	0.12738891
171	0xbd7f7c47	-0.06237438
172	0x3e273dee	0.16332218
173	0x3e24bb57	0.1608709
174	0x3d143c3d	0.03619026
175	0x3e138e64	0.14409786
176	0xbdd3f1c1	-0.10348845
177	0x3df81033	0.12112465
178	0x3df0c7d3	0.117568634
179	0x3dbaa143	0.091127895
180	0xbdda55cf	-0.10660898
181	0xbd83cbb9	-0.064353414
182	0xbd9d6aab	-0.07686361
183	0x3e02fc63	0.1279159
184	0x3c3865e8	0.011254765
185	0x3a9c305c	0.0011916268
186	0x3d16e47c	0.036838993
187	0xbd5439c5	-0.051812906
188	0xbd9eb36f	-0.07749068
189	0x3e1b58f1	0.15170647
190	0xbd30b61c	-0.043142423
191	0x3a916257	0.001109193
192	0x3ac011f5	0.0014653789
193	0xbdb3641e	-0.0875933
194	0x3dfdfb28	0.1240142
195	0x3d2435e8	0.04009047
196	0x3dfaa1ba	0.12237878
197	0x3ce8cc11	0.028417619
198	0xbda1fc9a	-0.07909508
199	0x3daa7dd6	0.083247826
200	0xbdf1e200	-0.11810684
201	0x3da31d3c	0.079645604
202	0x3d9ecb51	0.07753623
203	0xbc521a54	-0.01282366
204	0x3db96e59	0.0905425
205	0x3d6b08a6	0.057381295
206	0xbd90e662	-0.07075192
207	0x3e13d531	0.14436795
208	0x3e15c21c	0.14624828
209	0x3dcfcebb	0.101468526
210	0xbdbeb531	-0.09311903
211	0xbc4ff33f	-0.012692272
212	0xbc9ee2d7	-0.019395275
213	0x3bc606a2	0.006043271
214	0xbd65ba72	-0.05608601
215	0x3d8b17a1	0.06791616
216	0x3d71c80d	0.059028674
217	0xbd8553f9	-0.06510157
218	0x3daed744	0.085371524
219	0x3dce7a5c	0.10081932
220	0x3e107bb4	0.14109689
221	0x3db32223	0.087467454
222	0x3d10e9f0	0.03537935
223	0xbdbd3971	-0.09239472
224	0xbd374db0	-0.044751823
225	0xbdbd55bb	-0.092448674
226	0xbde057d0	-0.10954249
227	0xbe40db32	-0.18833616
228	0x3d8f0c5c	0.06984779
229	0xbd1ef3f9	-0.03880689
230	0xbba43ace	-0.005011893
231	0x3da4ab68	0.08040506
232	0xbe0b333f	-0.13593768
233	0x3d9a83dd	0.07544682
234	0x3c87ca0a	0.016575832
235	0x3e192e74	0.14959127
236	0x3c966f7f	0.018363712
237	0xbdefd4da	-0.1171052
238	0xbd76fcc5	-0.060299654
239	0x3e0cf869	0.13766636
240	0xbd688288	-0.05676511
241	0x3dbc4401	0.09192658
242	0xbc92ebd2	-0.017934714
243	0xbdd6c9e4	-0.10487726
244	0xbd7012d7	-0.058611717
245	0x3e14b39d	0.14521642
246	0xbda41bbe	-0.08013104
247	0xbdeeece5	-0.11666278
248	0x3e1eefec	0.1552121
249	0xbcaf174d	-0.021373415
250	0x3cb863fa	0.02250861
251	0x3c0cf9b6	0.008604458
252	0xbd976a71	-0.07393349
253	0x3da5ad5c	0.08089706
254	0xbd4119c3	-0.04714371
255	0x3e1dd628	0.15413725

lstm.weight_hh_l0 f4 [192, 48]
0	0xbc9f4769	-0.01944323
1	0x3dcb93f1	0.09940327
2	0x3d921083	0.071320556
3	0x3df404a0	0.11914945
4	0xbde663fa	-0.11249538
5	0x3daf2916	0.085527584
6	0xbe16e9db	-0.14737646
7	0xbdc793ae	-0.097449645
8	0x3bdef683	0.006804289
9	0xbdbb82b5	-0.0915579
10	0xbdf0ac3d	-0.11751602
11	0xbe07613a	-0.13220683
12	0x3e11515b	0.14191191
13	0xbddbc19c	-0.107302874
14	0x3dcb18a1	0.09916807
15	0x3d6ff71d	0.058585275
16	0xbda6571e	-0.08122085
17	0x3db2f4eb	0.08738121
18	0x3c055991	0.00813903
19	0xbd4e8843	-0.050422918
20	0xbe0a733d	-0.13520522
21	0xbe007a7f	-0.12546729
22	0x3ddc5a26	0.10759382
23	0xbdfee14c	-0.12445316
24	0xbca9c53d	-0.020723933
25	0xbe1be927	-0.1522566
26	0xbd9c8e67	-0.076443486
27	0xbd29a1fb	-0.041414242
28	0x3d075f76	0.033050023
29	0xbd816dfd	-0.06319807
30	0xbd97f6c0	-0.07420111
31	0xbc08882d	-0.008333248
32	0x3d85e64d	0.06538067
33	0x3d6de78e	0.058082156
34	0x3e0a1afe	0.13486859
35	0xba5d9f58	-0.0008454225
36	0xbde2d5e4	-0.11075953
37	0x3d232bde	0.039836757
38	0xbcc9688c	-0.024585985
39	0xbd996f14	-0.074918896
40	0xbdcfd671	-0.10148323
41	0x3d8c6e14	0.06856933
42	0x3dea9099	0.11453361
43	0x3dfacdcf	0.12246286
44	0x3cefe308	0.029283062
45	0x3e1361d0	0.14392781
46	0xbdc06eaa	-0.093961075
47	0xbc92a0b4	-0.017898895
48	0x3da7f108	0.0820027
49	0x3c8f486b	0.017490586
50	0x3c82a295	0.015946666
51	0xbd86d9df	-0.06584524
52	0xbd890eab	-0.06692251
53	0x3d9b9c83	0.075982116
54	0x3ca99db7	0.020705087
55	0x3d471cb7	0.04861137
56	0x3d2c4a43	0.04206301
57	0x3c49c1d6	0.0123142805
58	0x3d805d85	0.062678374
59	0x3dfc4757	0.123182945
60	0xbc58bbea	-0.013228396
61	0xbdae7904	-0.08519176
62	0xbced5416	-0.02897076
63	0xbdcb8130	-0.0993675
64	0x3dd1e503	0.10248759
65	0x3e2db868	0.16964877
66	0xbc2f13dd	-0.010685888
67	0xbe02d3b6	-0.12776074
68	0xbdb422e9	-0.08795721
69	0xbe363368	-0.17793047
70	0x3db01995	0.085986294
71	0xbd4d375b	-0.05010162
72	0xbcc42364	-0.023942657
73	0xbdd2f703	-0.1030102
74	0x3dbf6178	0.093447626
75	0xbc9875cf	-0.018610863
76	0xbdd177de	-0.10227941
77	0x3dcca2a7	0.09991961
78	0xbcadd053	-0.0212175
79	0xbd85ab64	-0.06526831
80	0x3d5591fe	0.052141182
81	0x3cad70c8	0.021171942
82	0xbc9c37f2	-0.019069646
83	0x3dd85600	0.10563278
84	0x3d2ea353	0.042636227
85	0xbdd37985	-0.103259124
86	0x3bca381f	0.006171241
87	0xbbbd8af2	-0.005784386
88	0x3c7f4cba	0.015582258
89	0xbdd15b9e	-0.10222553
90	0xbe0a5e24	-0.13512474
91	0xbd3a3fcd	-0.045471
92	0x3c958074	0.018249728
93	0x3d7c1eb7	0.06155273
94	0xbbf86302	-0.007580162
95	0x3c0d7091	0.008632795
96	0xbd41dbbd	-0.0473287
97	0x3d970d42	0.073755756
98	0xbcd396be	-0.025828715
99	0x3c050d89	0.008120903
100	0xbe2bba9a	-0.16770402
101	0x3dd6ffe7	0.10498028
102	0x3c13de40	0.0090251565
103	0x3da14fcf	0.078765504
104	0xbe10b7f2	-0.1413267
105	0xbdb8e5db	-0.090282165
106	0x3d509023	0.05091871
107	0x3db3ce64	0.087796
108	0x3e0eccf1	0.13945366
109	0xbde7bb45	-0.11315016
110	0xbd70a243	-0.058748495
111	0x3cb6fb18	0.022336528
112	0x3daf4523	0.08558109
113	0x3d8e763a	0.06956144
114	0xbd4ebbf4	-0.050472215
115	0xbdee371e	-0.116316065
116	0x3dc46a4c	0.09590587
117	0x3d8d0bc9	0.068870135
118	0xbc32e36c	-0.010918479
119	0x3bf15fd9	0.0073661623
120	0xbde4a57b	-0.111643754
121	0x3dc84112	0.09778036
122	0xbb640540	-0.0034793168
123	0xbe115e7d	-0.141962
124	0xbe11eea1	-0.14251186
125	0xbe06e364	-0.1317268
126	0xbdaf23b2	-0.0855173
127	0x3e0d0235	0.13770373
128	0x3e0682da	0.13135853
129	0xbe295044	-0.16534525
130	0x3e184925	0.14871652
131	0xbe02e183	-0.12781338
132	0x3caf81d2	0.021424208
133	0xbdb7fd08	-0.08983809
134	0x3dec10fb	0.11526676
135	0x3e1ffd76	0.15624031
136	0x3da4531b	0.080236636
137	0xbcb53c50	-0.022123486
138	0xbd7a6ea6	-0.06114068
139	0xbcd79f6b	-0.026321134
140	0x3d9947b8	0.074843824
141	0xbd59719f	-0.053086873
142	0x3cbc73b9	0.0230044
143	0xbba38be0	-0.0049910396
144	0x3ce95c89	0.028486507
145	0xbdf1f1ab	-0.11813673
146	0x3d4a8069	0.049438868
147	0xbc065b22	-0.008200439
148	0xbe102c64	-0.14079434
149	0x3e2ac5eb	0.16677062
150	0x3c89c7b9	0.016818868
151	0x3cf6872c	0.030093752
152	0x3dc35402	0.095375076
153	0xbd592da8	-0.053022057
154	0x3e0e9d1d	0.13927121
155	0xbd9e5522	-0.077310815
156	0xbda102aa	-0.07861836
157	0x3d1697ea	0.03676597
158	0x3de3ba43	0.11119511
159	0xbe0ddf48	-0.13854706
160	0xbdf3c879	-0.119034715
161	0xbcef7e3a	-0.029234994
162	0xbdfb333e	-0.12265633
163	0x3ba2ef93	0.004972407
164	0x3e2aa32b	0.16663806
165	0xbd0affa4	-0.033935204
166	0xbde74717	-0.11292856
167	0xbdd1d2a8	-0.102452576
168	0xbc91d1f5	-0.01780031
169	0xbd0e6226	-0.03476157
170	0xbbfbf2bc	-0.0076888483
171	0xbe1e4537	-0.15456091
172	0x3d201aeb	0.03908817
173	0xbc06c36e	-0.008225305
174	0x3d919883	0.071091674
175	0xbdf07a05	-0.117420234
176	0x3e01a336	0.12659916
177	0xbdd4a04b	-0.10382136
178	0xbd195045	-0.037430067
179	0x3dae7f54	0.0852038
180	0xbc10e78e	-0.008844269
181	0x3e16c536	0.14723668
182	0xbd836e73	-0.06417551
183	0x3dadecf3	0.0849246
184	0xbe0f3277	-0.13984095
185	0x3da6b675	0.0814027
186	0x3dc396b6	0.0955023
187	0xbe2a9d13	-0.16661482
188	0x3dbf50be	0.09341572
189	0x3dd5c0d8	0.10437173
190	0x3d9dd877	0.07707303
191	0x3dce04e4	0.100595266
192	0xbddb00f6	-0.10693543
193	0x3d3c57a4	0.045982018
194	0x3d292033	0.041290473
195	0xbd790e71	-0.060804788
196	0xbde24cc5	-0.11049799
197	0xb9d2b49d	-0.0004018889
198	0xbe072ee9	-0.13201489
199	0xbdf0b438	-0.11753124
200	0xbcfc3423	-0.03078658
201	0xbb6b2af2	-0.0035883752
202	0xbddfac66	-0.10921554
203	0xbe080959	-0.13284816
204	0x3d9ab17e	0.07553385
205	0x3d6c2977	0.05765673
206	0x3d0a7c94	0.033810213
207	0xbe1374a3	-0.14399962
208	0xbc73c2e0	-0.014878005
209	0x3d1e78b2	0.038689323
210	0x3d05e3dd	0.03268801
211	0xbdb137d9	-0.0865323
212	0x3dba0ca4	0.09084442
213	0xbc6073b0	-0.013699457
214	0x3cd815ca	0.026377577
215	0x3dec18d2	0.115281716
216	0x3d9bfeac	0.07616934
217	0x3d6044a0	0.054752946
218	0xbc374465	-0.01118574
219	0x3d94d998	0.07268065
220	0xbe1e0e92	-0.15435246
221	0xbdb61427	-0.088905625
222	0xbd852062	-0.06500317
223	0x3bcf3207	0.0063231024
224	0xbdd8e297	-0.105900936
225	0x3dbd8320	0.09253526
226	0xbd574adc	-0.052561626
227	0x3da5d28d	0.080968
228	0xbc9aab50	-0.018880516
229	0x3dd94de5	0.1061056
230	0x3dbe20ea	0.092836216
231	0xbbddc251	-0.006767549
232	0x3e0104be	0.12599465
233	0x3d93dbf9	0.07219691
234	0xbdaace51	-0.08340133
235	0xbce9524a	-0.028481621
236	0x3d8807f5	0.06642143
237	0xbd2272b0	-0.039660156
238	0x3db12a1a	0.08650608
239	0xbd4909b4	-0.04908152
240	0xbd64a67d	-0.055822838
241	0xbe15cea4	-0.14629608
242	0x3aa406de	0.0012514254
243	0xbe02860c	-0.12746447
244	0xbe1db7f3	-0.15402202
245	0x3df1427f	0.11780261
246	0xbdf0f98b	-0.117663465
247	0x3dcf37b1	0.10118044
248	0xbd662003	-0.056182873
249	0x3c870497	0.01648168
250	0x3d1d3bbe	0.038387053
251	0x3e01858d	0.12648602
252	0xbb9fa646	-0.0048721163
253	0x3cc853cd	0.024454022
254	0x3cfc5df5	0.030806521
255	0x3dc5d2e9	0.096593685

lstm.bias_ih_l0 f4 [192]
0	0xbd4bf9ab	-0.04979865
1	0xbdb74be6	-0.08950023
2	0x3d0bb68d	0.03410964
3	0x3d72e8a8	0.05930391
4	0x3d4d6c5a	0.05015216
5	0xbdeaa4e8	-0.114572346
6	0x3e01a8ed	0.12662096
7	0x3db13932	0.08653487
8	0x3da64a63	0.08119657
9	0x3dda69ee	0.10664736
10	0xbd8954b2	-0.067056075
11	0xbbae75e2	-0.0053241113
12	0x3d0c58c1	0.03426433
13	0xbd08c5ff	-0.03339195
14	0x3c54649c	0.01296344
15	0x3dbf1afd	0.093313195
16	0xbd19709b	-0.037460905
17	0x3d7edbe7	0.062221434
18	0xbd2f1752	-0.04274685
19	0x3dec5c9c	0.11541101
20	0x3c3329c9	0.010935255
21	0x3e243274	0.16034871
22	0x3c746cfa	0.01491856
23	0x3d572e3e	0.052534334
24	0x3e0a97c5	0.13534458
25	0xbe039ac1	-0.12852003
26	0xbe0effdc	-0.1396479
27	0x3e0d2dd6	0.13787016
28	0x3aaf41ec	0.0013371087
29	0x3dc87099	0.09787101
30	0x3d0e8eb8	0.034804076
31	0x3df11a23	0.11772563
32	0x3d72ef37	0.059310164
33	0x3e141050	0.14459348
34	0x3dcd9d4d	0.10039768
35	0x3c3aeaf2	0.011408554
36	0x3d7bb595	0.061452467
37	0x3c53e32d	0.012932581
38	0x3da56be8	0.08077222
39	0xbc22f878	-0.009946935
40	0xbe12c98a	-0.14334694
41	0xbd937114	-0.07199302
42	0x3e078d00	0.13237381
43	0x3d083bd3	0.033260178
44	0x3dbf6434	0.09345284
45	0x3e099a9c	0.13437885
46	0x3d9edb2a	0.07756646
47	0xbd555d46	-0.052090906
48	0x3c92d420	0.017923415
49	0xbcfa5a5f	-0.03056067
50	0x3dcc55af	0.0997728
51	0x3ce20fe9	0.027595477
52	0xbdfabc04	-0.122428924
53	0xbdfb6b79	-0.12276358
54	0x3dfbc49a	0.12293358
55	0x3d840c02	0.06447603
56	0x3e12a619	0.14321174
57	0xbcb83686	-0.022486936
58	0x3e190fa2	0.1494737
59	0x3e245662	0.16048577
60	0x3dda4065	0.106568135
61	0xbdd89042	-0.1057439
62	0x3da42dd9	0.08016557
63	0x3e05f512	0.13081768
64	0x3dfea99c	0.12434694
65	0xbe074fba	-0.13214007
66	0x3de0ff13	0.109861515
67	0x3ddd1438	0.10794872
68	0x3d222926	0.039590023
69	0x3e1f97a8	0.15585196
70	0x3df9ecb1	0.122033484
71	0xbdc6a62e	-0.09699665
72	0xbdeae7dc	-0.11470005
73	0xbdf3a5de	-0.11896871
74	0x3cd228f4	0.025654294
75	0xbd32d96f	-0.043664392
76	0x3d58b8b0	0.052910507
77	0xbd319e24	-0.043363705
78	0xbdbf04e8	-0.09327108
79	0xbdc135d5	-0.09434096
80	0xbd9a4f36	-0.075346395
81	0x3dad9e24	0.084774286
82	0xbcef1469	-0.029184537
83	0xbdbce38a	-0.09223087
84	0x3df9243b	0.121651135
85	0xbc953675	-0.018214444
86	0x3ce15a2f	0.027508823
87	0x3d4d7c18	0.050167173
88	0x3dcedc8a	0.10100658
89	0xbd5cc067	-0.053894427
90	0xbc7d5ca2	-0.01546398
91	0x3e14b68c	0.14522761
92	0x3de5479d	0.111953
93	0xbd9c0ab6	-0.076192304
94	0x3dff591c	0.12468168
95	0xbd4a928a	-0.049456157
96	0xbd9e0a1c	-0.07716772
97	0xbd94b52b	-0.072611175
98	0x3dce7ba7	0.100821786
99	0xbd1c99b3	-0.038232516
100	0x3d7552d2	0.059893437
101	0xbdaf28bf	-0.085526936
102	0xbcd4e13c	-0.025986306
103	0xbd8ee8b7	-0.069779806
104	0x3d85ae51	0.06527389
105	0x3dc50c07	0.09621435
106	0x3d92745a	0.071510985
107	0x3bd55a13	0.006510982
108	0xbd959598	-0.07303923
109	0xbbd6ed92	-0.0065590823
110	0x3ce6194d	0.028088236
111	0xbd7ae92b	-0.061257523
112	0xbae9128f	-0.001778202
113	0xbdc57108	-0.096406996
114	0x3d028197	0.031861868
115	0xbd677e75	-0.056517083
116	0xbd5dcc30	-0.054149806
117	0x3d97bdd4	0.07409254
118	0x3d80b325	0.06284169
119	0x3defea71	0.11714638
120	0xbd673001	-0.056442264
121	0xbcb68868	-0.02228184
122	0x3de36dda	0.11104937
123	0x3cf807aa	0.030277092
124	0xbd0b5ee4	-0.03402604
125	0xbd8a0672	-0.067395106
126	0xbce015a4	-0.027354069
127	0xbc5f8e65	-0.013644789
128	0xbd2af25f	-0.04173505
129	0x3d9e6bee	0.0773543
130	0xbb800565	-0.003906893
131	0xbd68bb7d	-0.056819428
132	0xbcc9aaec	-0.024617635
133	0x3d8c2024	0.06842068
134	0x3dd362ac	0.103215545
135	0x3bb5f8e9	0.005553354
136	0xbddca85b	-0.10774299
137	0x3ce467bd	0.027881498
138	0x3e03f3d3	0.1288598
139	0xbd537926	-0.051629208
140	0xbd87635e	-0.0661075
141	0x3d302d0b	0.043011706
142	0xbc4111e9	-0.011784055
143	0x3d423fbb	0.04742406
144	0x3e190c2a	0.14946046
145	0xbd81e7f1	-0.063430674
146	0x3d2bd14d	0.04194765
147	0xbcaf81d1	-0.021424206
148	0xbcc8ddd7	-0.024519844
149	0xbdf961eb	-0.121768795
150	0xbdb047a5	-0.08607415
151	0x3dbd191e	0.09233306
152	0xbdebd0db	-0.115144454
153	0x3e05019d	0.12988897
154	0xbdeb3b92	-0.114859715
155	0xbc6e5b80	-0.0145481825
156	0x3c8681c0	0.016419291
157	0xbde42d4c	-0.11141452
158	0xbe097b42	-0.13425925
159	0xbdc02184	-0.093813926
160	0xbde5514c	-0.11197147
161	0xbd849411	-0.06473554
162	0x3e21fb4b	0.15818517
163	0x3e1c9f2f	0.15295099
164	0x3dce7eba	0.10082765
165	0xbb9f40aa	-0.0048600035
166	0xbcf51404	-0.02991677
167	0xbd8f6326	-0.07001333
168	0x3bb2d08d	0.00545699
169	0xbd7b93d9	-0.061420295
170	0xbe09c0d4	-0.13452464
171	0xbb799252	-0.0038081598
172	0x3e16867f	0.14699744
173	0xbc924ed9	-0.017859863
174	0x3dc9fb0e	0.09862338
175	0xbdf703a8	-0.12061244
176	0x3dc5ac48	0.09652001
177	0x3c14e89e	0.009088663
178	0xbdef7dc8	-0.11693913
179	0xbda12413	-0.07868209
180	0xbd18908d	-0.03724723
181	0x3d41ed8f	0.047345694
182	0x3c9b4e4b	0.018958231
183	0x3d8e8825	0.06959561
184	0x3de0802f	0.10961949
185	0x3de7e811	0.1132356
186	0xbdf3dad3	-0.11906972
187	0x3dbd311a	0.09237881
188	0x3dfb1e2f	0.122616164
189	0xbd4baf90	-0.049727976
190	0x3dd13f73	0.1021718
191	0xbb5fe8cc	-0.0034165857

lstm.bias_hh_l0 f4 [192]
0	0x3d2ce038	0.04220602
1	0x3d09dcbd	0.033657778
2	0xbe0812c5	-0.1328841
3	0x3d55b4da	0.052174427
4	0xbdd812d2	-0.10550465
5	0xbd97515b	-0.07388564
6	0xbcdbbcb9	-0.026823388
7	0x3ccd4b3c	0.025060289
8	0xbdf47677	-0.11936658
9	0xbdce362a	-0.10068925
10	0xb7c45c55	-2.3408016e-05
11	0x3e0c91bc	0.13727468
12	0x3dedcb45	0.11611036
13	0x3d5e8050	0.054321587
14	0xbbe7d233	-0.0070746182
15	0xbd7701fa	-0.06030462
16	0xbda96ff0	-0.082733035
17	0xbdb4f23e	-0.088352665
18	0x3d6072f0	0.054797113
19	0x3e024de9	0.12725033
20	0xbe004bf4	-0.12528974
21	0x3d0cd545	0.034383077
22	0xbd81cf0a	-0.06338318
23	0x3d79d9dd	0.060998786
24	0xbdbfe20f	-0.09369289
25	0x3ddb348a	0.107033804
26	0x3cab442b	0.020906528
27	0xbe0e3218	-0.13886297
28	0xbdab1a0a	-0.08354576
29	0x3debe097	0.115174465
30	0xbda9f0d9	-0.08297891
31	0xbd789437	-0.060688224
32	0x3c8752cc	0.016518973
33	0x3d871f03	0.06597712
34	0x3cc5eb7a	0.024160136
35	0x3da75b9d	0.08171771
36	0x3dfaad4d	0.12240086
37	0x3d398ceb	0.045300405
38	0x3da214ca	0.079141214
39	0xbda3246b	-0.079659306
40	0xbdf01326	-0.11722402
41	0x3dbe6e19	0.09298343
42	0xbd435b66	-0.047694586
43	0x3d34af05	0.044112224
44	0x3d2ec739	0.042670462
45	0xbdf8b8e3	-0.12144639
46	0x3d77b70e	0.06047731
47	0x3dcfab3b	0.101400815
48	0x3d1cbfbf	0.0382688
49	0x3aeeef81	0.0018229337
50	0xbdbdf9ef	-0.09276187
51	0xbcee7e79	-0.029113041
52	0xbc971634	-0.018443204
53	0x3e12448c	0.14283961
54	0x3d95b378	0.073096216
55	0xbe051194	-0.12994987
56	0xbd103880	-0.035210133
57	0x3e0bc005	0.13647468
58	0x3e15fb86	0.1464673
59	0x3d916411	0.07099164
60	0x3e0e45b1	0.13893773
61	0xbd9da84b	-0.07698115
62	0xbdae5e74	-0.08514109
63	0xbd08adde	-0.033368938
64	0x3ce692b5	0.028146127
65	0x3dd1ddae	0.1024736
66	0xbdf971ad	-0.12179885
67	0xbce380ff	-0.027771471
68	0x3d5d0ef2	0.05396933
69	0xbcac28bc	-0.021015517
70	0x3de63b9a	0.11241837
71	0xbddd51ad	-0.10806594
72	0xbc80df6d	-0.015731538
73	0x3df1356c	0.117777675
74	0xbdc2f0cf	-0.09518587
75	0xbdeb1568	-0.11478692
76	0x3d3637ee	0.044486932
77	0x3ca32943	0.019917136
78	0x3e010de2	0.12602952
79	0xbe25a636	-0.16176686
80	0xbd865b4b	-0.065603815
81	0x3d8abc96	0.06774251
82	0x3e06e6f3	0.13174038
83	0x3d96fe62	0.073727384
84	0xbd7b7351	-0.06138927
85	0xbdc76ac1	-0.097371586
86	0xbdd62518	-0.10456294
87	0x3dac6661	0.08417965
88	0xbdeb2dec	-0.11483368
89	0x3cb6b433	0.022302723
90	0x3e18db8b	0.14927499
91	0xbdf48755	-0.11939875
92	0x3d19955b	0.037495952
93	0xbdb885bd	-0.090098836
94	0xbe053ed7	-0.13012253
95	0x3c097e1d	0.008391884
96	0xbd7880fe	-0.06066989
97	0x3dfff9c1	0.12498809
98	0xbd4d6c9a	-0.0501524
99	0x3d0a1b17	0.03371724
100	0x3c846478	0.016161188
101	0x3d0669c6	0.032815717
102	0xbc99ee25	-0.018790314
103	0x3d1b8ee5	0.03797807
104	0xbd3981cb	-0.045289796
105	0x3e0d10f2	0.13775995
106	0x3c575189	0.013141998
107	0xbc645bef	-0.013937934
108	0x3dc30030	0.0952152
109	0xbd10d980	-0.035363674
110	0x3db332e4	0.08749941
111	0xbd987208	-0.07443625
112	0x3dffbcc6	0.124871776
113	0x3d98bc1c	0.07457754
114	0xbcd7cef4	-0.0263438
115	0x3cbdc072	0.023163054
116	0x3d306610	0.043066084
117	0x3d208046	0.03918483
118	0x3c86a499	0.016435908
119	0x3de5059d	0.11182711
120	0xbe0270a2	-0.12738279
121	0xbd4ba533	-0.049718093
122	0xbd9af571	-0.075663455
123	0x3df771ca	0.120822504
124	0x3df7d379	0.12100882
125	0xbda50cba	-0.08059068
126	0xbdd80093	-0.105469845
127	0xbe002485	-0.12513931
128	0x3daa1905	0.08305553
129	0xbd2d338d	-0.04228549
130	0x3d2f5efb	0.04281519
131	0xbd919a6d	-0.071095325
132	0xbbd03f7d	-0.0063552246
133	0x3dd6b110	0.10482991
134	0x3c3ee6a9	0.011651673
135	0x3d7722eb	0.060336035
136	0xbe06147d	-0.13093753
137	0x3cbc0583	0.022951847
138	0xbd7699c7	-0.060205247
139	0x3dcf186c	0.1011208
140	0xbd527a6c	-0.05138628
141	0x3dbd1955	0.09233347
142	0xbdaee87c	-0.085404366
143	0x3df4dfab	0.11956724
144	0x3da89340	0.08231211
145	0x3c4cfed2	0.012511926
146	0x3df3f176	0.119112894
147	0x3dbe126b	0.09280857
148	0xbdf6a940	-0.120440006
149	0x3cab83de	0.020936903
150	0xbdccd0b2	-0.10000743
151	0x3e129906	0.14316186
152	0x3cb4af14	0.02205614
153	0xbdaca098	-0.08429068
154	0xbd9239f8	-0.07139963
155	0x3e00ab10	0.12565255
156	0x3d915750	0.07096732
157	0xbe08f00b	-0.13372819
158	0x3df1d7a0	0.11808705
159	0xbcfae9c0	-0.030629039
160	0x3ddb302a	0.10702546
161	0xbe0aac6d	-0.13542338
162	0xbdcc3646	-0.09971289
163	0xbb72a271	-0.0037023092
164	0x3e10fdf1	0.14159371
165	0xbd6604c3	-0.056156885
166	0x3d8c2c5b	0.06844398
167	0x3ca31665	0.01990814
168	0x3de2b359	0.11069364
169	0xbdccfde8	-0.10009366
170	0xbdc56b29	-0.0963958
171	0xbdf2866e	-0.11842047
172	0x3e1b7c8d	0.15184231
173	0x3d1732cc	0.036913678
174	0xbd70c40c	-0.058780715
175	0x3d076bff	0.033061977
176	0x3cee464d	0.029086256
177	0xbde46937	-0.11152881
178	0x3d2e781a	0.042595007
179	0x3e0cb3e3	0.13740496
180	0xbcbedb95	-0.023298064
181	0xbdc70d69	-0.09719355
182	0x3d669a39	0.056299422
183	0xbc548204	-0.012970451
184	0x3d72059e	0.05908739
185	0xbd0b360c	-0.03398709
186	0xbc26060c	-0.010133278
187	0x3d079faa	0.033111252
188	0x3d4312d9	0.047625396
189	0xbd755c09	-0.059902225
190	0x3cbc67c1	0.022998692
191	0xbdaf55bd	-0.08561275

lstm.weight_ih_l1 f4 [192, 48]
0	0x3e27bc9e	0.16380545
1	0xbd2086f6	-0.03919121
2	0xbdc6d882	-0.09709264
3	0x3cf76901	0.030201437
4	0xbdac3dc3	-0.084102176
5	0x3e25d885	0.16195877
6	0xbdd0c3c1	-0.10193587
7	0xbd309ecd	-0.043120194
8	0x3d21b4e4	0.03947915
9	0x3d6ca3ff	0.057773586
10	0xbd8bc43e	-0.068245396
11	0xbd25c5e0	-0.04047191
12	0x3df64476	0.12024777
13	0xbca25da1	-0.019820036
14	0xbd81c541	-0.06336451
15	0x3c1562e0	0.009117812
16	0xbcfabe7c	-0.030608408
17	0xbd5340dd	-0.05157553
18	0xbe1e55a5	-0.15462358
19	0x3d275af4	0.040858224
20	0x3e08098e	0.13284895
21	0xbdaeb89f	-0.085313074
22	0x3e1c43f8	0.15260303
23	0x3d4c6279	0.0498986
24	0xbd3ada6c	-0.04561846
25	0xbcc30238	-0.023804769
26	0x3d18ae12	0.03727538
27	0xbd1fff4f	-0.03906184
28	0xbdb52fa5	-0.08846978
29	0x3d7ba97e	0.061440937
30	0x3d96e375	0.07367603
31	0xbd4fab84	-0.05070068
32	0x3d47c2f1	0.048769895
33	0x3c960268	0.018311694
34	0xbd62dcd6	-0.055386387
35	0x3d9e3d96	0.0772659
36	0xbd64e5fa	-0.055883385
37	0x3e075f99	0.13220061
38	0xbdd9d233	-0.106357954
39	0xbcc3eef6	-0.023917656
40	0xbc08609c	-0.008323815
41	0xbddc8807	-0.10768133
42	0xbcbc562b	-0.022990307
43	0xbd929a82	-0.07158376
44	0x3ddf286e	0.10896383
45	0xbe0d6f50	-0.13811994
46	0x3dddaf90	0.108245015
47	0xbdc92186	-0.09820847
48	0x3d5f319a	0.054490663
49	0xbd4e4169	-0.05035535
50	0xbd656619	-0.05600557
51	0xbc98bccf	-0.018644718
52	0xbd49aa2e	-0.04923456
53	0x3d3b02b3	0.04565687
54	0xbd48c961	-0.049020175
55	0x3dc5a3eb	0.096504055
56	0xbcf4b187	-0.029869808
57	0xbc367a5b	-0.01113757
58	0x3dc2593d	0.09489677
59	0x3d377036	0.044784747
60	0x3d3d2892	0.04618127
61	0xbdd2a331	-0.102850325
62	0xbcf5bec3	-0.029998189
63	0xbdb1843b	-0.08667799
64	0xbdce2151	-0.10064948
65	0x3da46c4b	0.08028468
66	0xbd968c6e	-0.073510036
67	0x3c36d2cb	0.011158655
68	0xbdc09dab	-0.09405073
69	0xbbb83eee	-0.005622736
70	0x3d7c74a6	0.061634682
71	0x3d893f1a	0.06701489
72	0x3d3db9fe	0.046319954
73	0xbd87f2dc	-0.066381186
74	0x3e01b968	0.12668383
75	0xbd93c5cf	-0.07215463
76	0x3ce9b03f	0.028526423
77	0x3cb39ead	0.021926248
78	0x3d9b0320	0.075689554
79	0xbd88a68f	-0.066723935
80	0x3dd2a215	0.10284821
81	0x3db1e813	0.08686843
82	0x3db04b9a	0.0860817
83	0xbc53472f	-0.012895389
84	0x3e32e959	0.17471828
85	0x3d730955	0.05933507
86	0xbdb1b7bb	-0.08677622
87	0x3be06b20	0.006848708
88	0xbd8602f2	-0.065435305
89	0x3d87580a	0.06608589
90	0x3d6bd12f	0.05757254
91	0x3b5da692	0.0033821207
92	0xbd9651ec	-0.07339844
93	0x3b02bffc	0.0019950857
94	0x3d99878e	0.07496558
95	0xbe2f6757	-0.17129265
96	0xbc06109f	-0.008182674
97	0x3d8348f9	0.06410403
98	0xbd9970fe	-0.07492255
99	0x3e34b5af	0.17647432
100	0x3dc49e74	0.09600535
101	0xbe2e4388	-0.17017949
102	0x3dcf227f	0.101140015
103	0x3c81fdf6	0.015868168
104	0x3d832517	0.06403559
105	0xbb21544d	-0.0024616898
106	0xbcbc3551	-0.022974642
107	0x3d6b650f	0.057469424
108	0xbe0178a4	-0.12643677
109	0x3d92eeb6	0.07174437
110	0xbdb08ad1	-0.08620227
111	0x3d31b45b	0.04338489
112	0xbe2cf832	-0.16891554
113	0x3e12a2f0	0.14319968
114	0xbd97519f	-0.07388615
115	0xbddd5433	-0.10807075
116	0x3dab7665	0.08372191
117	0x3cfbb6de	0.030726846
118	0xbd770460	-0.060306907
119	0x3dfc7d77	0.12328618
120	0x3dc6211d	0.096742846
121	0xbc87439e	-0.016511735
122	0xbd88587b	-0.06657501
123	0x3dd9ab69	0.10628397
124	0x3cb28550	0.021792084
125	0xbcaa6cd7	-0.020803852
126	0x3d092e30	0.033491313
127	0xbc14df76	-0.00908648
128	0x3d7c7fe6	0.06164541
129	0xbc2a3086	-0.010387545
130	0x3db77c11	0.08959211
131	0x3df7f1b0	0.12106645
132	0xbe00d10d	-0.12579747
133	0xbb256d14	-0.0025242018
134	0xbcff0505	-0.031130323
135	0xbdb9299e	-0.09041141
136	0xbcb520e0	-0.022110403
137	0x3cb0fef4	0.021605946
138	0x3ce8d241	0.02842057
139	0x3e185736	0.14877018
140	0x3d32a0f2	0.04361052
141	0x3d29cafc	0.041453347
142	0xbdf1fb3a	-0.11815496
143	0x3e066a92	0.13126591
144	0x3d511531	0.0510456
145	0xbd8f56b6	-0.06998961
146	0x3d1961ed	0.037446905
147	0xbe027db7	-0.12743269
148	0x3dba4a45	0.09096197
149	0xbc7f91e3	-0.015598747
150	0x3d84eb02	0.06490137
151	0xbdaa3169	-0.083102055
152	0xbd7e6eb4	-0.062117293
153	0xbdae8edb	-0.08523341
154	0xbb5b29e0	-0.0033441707
155	0xbd41f6eb	-0.04735462
156	0x3d99ea26	0.075153634
157	0x3db6a9f4	0.08919135
158	0x3da7e213	0.08197417
159	0x3d54b0fe	0.051926605
160	0x3bc69134	0.00605979
161	0x3d9edfd4	0.077575356
162	0x3d007632	0.03136272
163	0xbc1c961c	-0.009557273
164	0xbd6a1577	-0.057149377
165	0xbd667a68	-0.05626908
166	0x3de5cbf8	0.112205446
167	0xbce481b2	-0.027893875
168	0xbb0242ae	-0.001987617
169	0xbddef811	-0.10887159
170	0xbcbcd6c7	-0.023051633
171	0xbd8fdc8b	-0.07024487
172	0xbd84fc2c	-0.064934105
173	0xbdd43b70	-0.10362899
174	0x3dfcdb36	0.12346499
175	0xbdc265d1	-0.09492076
176	0x3e0a4d51	0.13506056
177	0x3db8e231	0.090275176
178	0x38a25a93	7.741633e-05
179	0x3d5b3632	0.05351848
180	0xbd5836e2	-0.052786715
181	0xbc8a921d	-0.016915375
182	0xbdf19f9f	-0.117980234
183	0x3d85e340	0.06537485
184	0xbe05748d	-0.13032742
185	0xbd1a9689	-0.037741218
186	0x3d4340ed	0.04766934
187	0xbddeb3ee	-0.108741626
188	0xbc0406c2	-0.008058252
189	0x3dd2b142	0.102877155
190	0xbc426ac1	-0.011866272
191	0xbd48c7e4	-0.049018756
192	0xbd1751bc	-0.036943182
193	0xbdc96aa8	-0.09834796
194	0x3c57779c	0.013151076
195	0xbd58d4b0	-0.05293721
196	0xbd9bcf27	-0.076078705
197	0x3e0e1935	0.13876803
198	0xbe10d356	-0.14143118
199	0xbd145408	-0.03621295
200	0xbe2a3dfc	-0.16625208
201	0xbe08dfc5	-0.13366611
202	0xbdd8db2c	-0.10588679
203	0xbe1a7b07	-0.15085994
204	0x3e1a55b5	0.15071757
205	0xbd55d99e	-0.05220949
206	0x3d7602b0	0.060061157
207	0xbd89d025	-0.067291535
208	0x3cbf7d4c	0.023375176
209	0xbdbdb5c5	-0.092631854
210	0x3d11c887	0.03559163
211	0x3deccb96	0.115622684
212	0x3e1404d7	0.14454971
213	0xbd853df7	-0.065059595
214	0x3cd27fa8	0.025695637
215	0x3de0d659	0.109783836
216	0x3dabb2d4	0.08383718
217	0x3d4d350c	0.050099418
218	0xbdb4b9a2	-0.08824469
219	0xbdffe686	-0.12495141
220	0xbc26c31f	-0.010178356
221	0x3dfa1589	0.12211139
222	0xbe1b1e3c	-0.15148252
223	0x3c982576	0.01857255
224	0xba9f02fa	-0.0012131624
225	0xbd859f97	-0.0652458
226	0x3ccbaf12	0.024863753
227	0x3db80997	0.08986204
228	0x3c424555	0.01185735
229	0xbd60876d	-0.054816652
230	0x3cf5d53e	0.030008908
231	0xbda16e9a	-0.07882424
232	0x3db51e80	0.08843708
233	0xbdc4ba2e	-0.096058235
234	0xbde54649	-0.111950465
235	0xbda108e6	-0.07863025
236	0xbde4c65c	-0.111706465
237	0x3d21b67e	0.03948068
238	0x3ce25f8e	0.027633455
239	0xbe241965	-0.16025312
240	0x3da67e3c	0.08129546
241	0x3e38851b	0.18019526
242	0xbdbd40a3	-0.09240844
243	0x3db6f434	0.08933297
244	0xbd091468	-0.033466727
245	0x3d80dd89	0.062922545
246	0xbda66512	-0.081247464
247	0x3db26a85	0.08711723
248	0x3e01990f	0.12656043
249	0xbe015004	-0.1262818
250	0xbe13d2f3	-0.1443594
251	0xbd9394bb	-0.072061025
252	0xbe32083f	-0.17385958
253	0x3d74ba4d	0.059747983
254	0xbdec2209	-0.11529929
255	0xbd6b2061	-0.057403926

lstm.weight_hh_l1 f4 [192, 48]
0	0xbc841311	-0.016122373
1	0x3dde4975	0.108538546
2	0xbbf59164	-0.0074941386
3	0xbdb6921f	-0.08914589
4	0x3da67e35	0.08129541
5	0x3d7d8fcb	0.06190471
6	0xbcf7e9e8	-0.030262902
7	0x3d7587e5	0.059944052
8	0x3db0e823	0.086380266
9	0xbcf662b3	-0.03007636
10	0xbdd93510	-0.10605824
11	0xbce9987f	-0.028515099
12	0xbcf0c911	-0.029392751
13	0xbd571124	-0.05250658
14	0xbc8b6612	-0.017016444
15	0x3dabe654	0.08393541
16	0xbdbd0a8a	-0.09230526
17	0xbdec17c9	-0.11527974
18	0xbdd38f3a	-0.10330053
19	0xbd5ade9e	-0.05343496
20	0xbd0322a8	-0.032015473
21	0xbc8d18d4	-0.017223753
22	0xbd4fdefd	-0.050749768
23	0xbcedc122	-0.029022757
24	0xbd197c8a	-0.037472285
25	0xbd384ba7	-0.044994023
26	0x3c556d17	0.013026497
27	0xbd09c5ac	-0.03363578
28	0x3d8410df	0.064485304
29	0xbcb8284d	-0.022480154
30	0xbd4be71e	-0.049780957
31	0xbdb699e3	-0.0891607
32	0xbd45635c	-0.04819046
33	0xbdec7e30	-0.11547506
34	0xbdf5e03b	-0.12005659
35	0xbc866a80	-0.016408205
36	0x3da5bcfd	0.08092687
37	0x3e02f0a8	0.12787116
38	0x3e0040d0	0.12524724
39	0x3d8a57fc	0.06755063
40	0xbd0501de	-0.032472484
41	0xbe0d8f8d	-0.13824292
42	0x3d972e28	0.073818505
43	0xb8e54fe6	-0.00010934453
44	0x3e1bb3f4	0.15205365
45	0xbc0a43ed	-0.008439046
46	0xbb2113ee	-0.002457853
47	0xbc8c1b51	-0.01710287
48	0xbddf21ca	-0.108951166
49	0x3de690ac	0.11258063
50	0xbce5eec2	-0.02806795
51	0xbdb5f35b	-0.08884307
52	0xbdf0a03e	-0.11749314
53	0x3ddefdc3	0.10888245
54	0xbda60942	-0.081072345
55	0x3c56f06f	0.013118847
56	0xbd91aba0	-0.07112813
57	0x3d27b6a4	0.040945664
58	0x3dbd6ecb	0.09249648
59	0xbd8a0b63	-0.06740453
60	0xbd90bb3d	-0.07066963
61	0x3da227f6	0.07917778
62	0x3dba541b	0.09098073
63	0xbe0d614d	-0.13806649
64	0xbd93b91a	-0.0721304
65	0xbcb97a19	-0.022641229
66	0xbd73afe9	-0.059493933
67	0x3e00e1d7	0.12586151
68	0x3e015965	0.12631758
69	0xbdc2eb1a	-0.09517498
70	0xbc69d890	-0.014272824
71	0x3dbd5b4e	0.092459306
72	0x3df01451	0.11722625
73	0x3d3f6aef	0.04673284
74	0x3e08ff44	0.13378626
75	0xbdd5356b	-0.10410579
76	0x3c579d6f	0.013160094
77	0x3db79cb9	0.08965439
78	0xbd1a4233	-0.03766079
79	0xbdbe3b70	-0.092886806
80	0x3d6ae2a8	0.057345062
81	0xbda5dc72	-0.08098687
82	0xbdb8382f	-0.08995091
83	0x3e13dfc7	0.14440833
84	0xbd675bf9	-0.056484196
85	0x3b334d71	0.002735939
86	0xbd8093fc	-0.06278226
87	0x3dda217b	0.10650917
88	0x3d39b0bd	0.045334566
89	0xbd557005	-0.052108783
90	0x3dca1d39	0.09868855
91	0xbda7a6e2	-0.08186127
92	0x3e0d0a9f	0.13773583
93	0x3dba01e7	0.09082394
94	0x3d95beca	0.07311781
95	0xbdcfa1d4	-0.10138288
96	0x3deeaf03	0.116544746
97	0x3e12453c	0.14284223
98	0x3d6b5907	0.05745795
99	0x3d801d8c	0.062556356
100	0x3da35be5	0.07976512
101	0xbd675430	-0.05647677
102	0xbd5ce232	-0.053926654
103	0x3e1fae54	0.15593845
104	0xbc3de429	-0.011590042
105	0x3ceaa15d	0.028641397
106	0xbde64d37	-0.11245196
107	0x3b522bc7	0.003206955
108	0x3d4bf199	0.049790952
109	0x3e0b3d01	0.1359749
110	0xbe0dd69e	-0.13851401
111	0x3d236ea8	0.039900452
112	0xbd960f55	-0.07327143
113	0x3df319e0	0.1187017
114	0xbc4b7941	-0.012419046
115	0xbd9f152b	-0.07767709
116	0xbd91a4ee	-0.07111536
117	0xbc9aaa84	-0.018880136
118	0x3d60db27	0.0548965
119	0x3dfda6d4	0.123853356
120	0xbdd67006	-0.104705855
121	0xbd2c15b3	-0.04201288
122	0x3d9d232c	0.07672724
123	0x3e04926b	0.12946479
124	0x3d0dbf94	0.03460653
125	0x3d86d26a	0.06583102
126	0x3df09eac	0.11749014
127	0x3d2d1ad1	0.042261902
128	0xbddf7cdb	-0.10912486
129	0x3d518622	0.05115331
130	0xbdf23ad8	-0.1182763
131	0xbd473983	-0.04863883
132	0xbda1f4ab	-0.07907995
133	0xbe0ea098	-0.13928449
134	0xbe03e085	-0.12878616
135	0xbe178607	-0.14797221
136	0xbe106497	-0.14100872
137	0x3e198c7f	0.14995001
138	0xbdc2b908	-0.09507948
139	0x3df862fd	0.121282555
140	0xbd95c830	-0.07313573
141	0xbdfbdbc4	-0.12297776
142	0x3d9261df	0.07147574
143	0x3d980f2e	0.0742477
144	0xbd60edd5	-0.054914314
145	0xbd9a01cf	-0.07519876
146	0x3da90522	0.08252932
147	0xbdc6e5df	-0.09711813
148	0xbd8faae2	-0.07015015
149	0xbe125381	-0.14289667
150	0x3dce6a6a	0.100788906
151	0x3e0b069a	0.13576737
152	0x3dafb740	0.08579874
153	0xbc86ce62	-0.016455833
154	0xbd5594fd	-0.05214404
155	0x3db42e85	0.087979354
156	0x3bfbead5	0.0076879063
157	0xbe00860d	-0.12551136
158	0x3dd2dc99	0.10295982
159	0xbe0c8753	-0.13723497
160	0x3dd92c60	0.10604167
161	0xbd7de710	-0.061987936
162	0xbde67889	-0.11253459
163	0xbdaffdf4	-0.085933596
164	0x3e0f054e	0.13966867
165	0xbe1752ff	-0.14777754
166	0x3debe6a5	0.11518601
167	0xbe03df2a	-0.12878099
168	0xbca38282	-0.019959692
169	0x3e003cdb	0.12523215
170	0x3e165f84	0.14684874
171	0x3dd7af68	0.10531503
172	0xbad00712	-0.0015871248
173	0x3de15380	0.110022545
174	0xbd10ee42	-0.03538347
175	0x3dfdebee	0.12398516
176	0xbc266ad0	-0.010157302
177	0xbd18782b	-0.037223976
178	0x3c62b67b	0.013837452
179	0x3cff5b11	0.031171354
180	0xbd9aecad	-0.075646736
181	0xbc9539a9	-0.018215971
182	0x3d500b14	0.050791815
183	0x3db7d9d4	0.08977094
184	0xbdff07c3	-0.12452652
185	0x3da88a55	0.0822951
186	0x3d7e2cad	0.062054325
187	0xbd1cfee3	-0.038329016
188	0x3dd9980d	0.106247045
189	0xbd9991d3	-0.07498517
190	0xbda45b6c	-0.0802525
191	0x3cbea049	0.02326979
192	0x3da95e29	0.08269913
193	0xbdfe9ecf	-0.12432634
194	0xbe09844f	-0.13429378
195	0x3b87e7b9	0.0041474965
196	0xbdb7e09d	-0.089783885
197	0x3d209aec	0.039210245
198	0xbdd9842d	-0.10620914
199	0xbcbfdf58	-0.023421928
200	0xbdb4b0a3	-0.08822753
201	0xbd3daeae	-0.046309166
202	0x3c5ad581	0.013356567
203	0xbbdb6ad6	-0.0066960854
204	0xbde8b718	-0.11363047
205	0xbddf2738	-0.10896152
206	0x3d6cb515	0.05778988
207	0x3daeb12c	0.085298866
208	0x3c876cb4	0.016531326
209	0xbde078f4	-0.1096057
210	0xbd024182	-0.031800754
211	0xbd4ec1e7	-0.05047789
212	0xbc30fdb1	-0.010802672
213	0xbd584d82	-0.052808292
214	0xbd636a77	-0.055521455
215	0xbd27dc10	-0.040981352
216	0x3dbf31c2	0.093356624
217	0x3da1e82c	0.079056114
218	0xbd80c02d	-0.062866546
219	0x3ca6dd6d	0.020369256
220	0x3cec056c	0.02881118
221	0x3c022522	0.007943423
222	0xbd4aceac	-0.049513504
223	0xbd54aca3	-0.05192245
224	0x3e05fa70	0.13083816
225	0xbd40af12	-0.04704196
226	0x3d55347c	0.052052006
227	0x3d9df8bd	0.07713459
228	0x3ddfec2c	0.10933718
229	0x3e0fb620	0.14034319
230	0x3e213130	0.1574142
231	0xbae36344	-0.0017348309
232	0xbcdd690e	-0.027027633
233	0x3cea3720	0.028590739
234	0xbc13ff69	-0.0090330625
235	0x3d3ef504	0.046620384
236	0x3d48ba9e	0.049006097
237	0x3d7e3992	0.062066622
238	0xbae5bef0	-0.0017528217
239	0x3e282b7e	0.16422841
240	0xbd72ddee	-0.05929368
241	0xbc8da98c	-0.01729276
242	0x3d905ac6	0.07048564
243	0xbd2eadf6	-0.04264637
244	0x3dcfd659	0.101483054
245	0xbdddb7ec	-0.10826096
246	0xbda9284e	-0.08259641
247	0xbd55800d	-0.052124072
248	0xbe0b14b4	-0.13582116
249	0x3e2528ff	0.1612892
250	0x3b5cef8a	0.0033712112
251	0x3e10b96d	0.14133234
252	0x3d1760e8	0.03695765
253	0x3e0d647a	0.1380786
254	0x3daaf226	0.083469674
255	0x3c1c0e6b	0.009524922

lstm.bias_ih_l1 f4 [192]
0	0x3df434ca	0.11924131
1	0xbd810a03	-0.06300738
2	0xbd8eaea2	-0.06966902
3	0xbd7c4495	-0.061588842
4	0xbd9292c0	-0.071568966
5	0x3dadaff9	0.0848083
6	0x3dab53ff	0.0836563
7	0xbe1276b2	-0.14303091
8	0xbd47151b	-0.048604112
9	0xbd939a4b	-0.072071634
10	0x3d16974b	0.036765378
11	0x3e1baabe	0.15201852
12	0x3dbebfd7	0.09313934
13	0xbd15d238	-0.036577433
14	0xbc51a36a	-0.012795309
15	0x3d28d6c8	0.041220456
16	0x3d6ed3e1	0.058307532
17	0xbd7032ef	-0.058642324
18	0x3e01426c	0.12622994
19	0x3d8fe8fd	0.07026861
20	0xbe0d3826	-0.1379095
21	0x3dd28326	0.10278921
22	0x3d002cbd	0.031292666
23	0x3e1a17fc	0.15048212
24	0xbd8967b4	-0.06709233
25	0x3e0b5f31	0.13610531
26	0xbe05d422	-0.13069203
27	0xbc84b0a0	-0.016197503
28	0x3db08a9c	0.08620188
29	0x3e0b3224	0.13593346
30	0x3c55c008	0.013046272
31	0xbdc12873	-0.09431543
32	0xbceb419c	-0.028717808
33	0xbdaf9aeb	-0.0857447
34	0x3c05c585	0.008164768
35	0x3d10442e	0.03522127
36	0x3e103e90	0.14086366
37	0x3d0d7a25	0.034540314
38	0xbda221d8	-0.079166114
39	0xbe06c021	-0.13159229
40	0xbe05c599	-0.13063659
41	0xbdd18941	-0.10231257
42	0x3d75e75e	0.060035102
43	0x3d88381f	0.06651329
44	0xba78f995	-0.000949764
45	0x3d00d104	0.031449333
46	0x3d93f505	0.07224468
47	0x3d4e6777	0.05039164
48	0xbe142dc9	-0.1447059
49	0xbcddcbed	-0.027074778
50	0xbe22e734	-0.1590851
51	0xbc2a150c	-0.0103809945
52	0xbda30455	-0.07959811
53	0xbe1573a9	-0.14594902
54	0x3e01a51b	0.12660639
55	0x3e0af12a	0.1356856
56	0x3ce67816	0.028133433
57	0xbccd2ea8	-0.025046661
58	0xbd8f794c	-0.070055574
59	0xbc9e5948	-0.019329682
60	0x3cd1aef7	0.025596125
61	0xbd43b10b	-0.047776263
62	0xbdecfed8	-0.11572045
63	0x3de890cf	0.11355745
64	0xbc8e8dba	-0.017401565
65	0x3caf8c65	0.02142925
66	0xbdb6ec9d	-0.08931849
67	0xbdb88aa8	-0.090108216
68	0x3cc47bac	0.023984753
69	0x3e0aaa29	0.13541473
70	0xbe0f0510	-0.13966775
71	0xbd7d04b2	-0.061772056
72	0xbdf61564	-0.12015799
73	0xbd52048b	-0.051273864
74	0x3d48829a	0.048952676
75	0x3df2c844	0.11854604
76	0xbdf95793	-0.121749066
77	0x3cc53191	0.024071487
78	0xbde0c53e	-0.10975121
79	0x3dbb9789	0.091597624
80	0xbe2500c9	-0.16113581
81	0x3de75ba7	0.11296778
82	0x3d6c6530	0.057713687
83	0xbb3cb4db	-0.0028794322
84	0xbba92434	-0.0051617865
85	0x3d6dce78	0.058058232
86	0x3c002cda	0.007823193
87	0x3e15d871	0.14633347
88	0x3dc4d935	0.096117415
89	0x3d9ab0b2	0.07553233
90	0x3dc1d22d	0.09463916
91	0xbde660b1	-0.11248911
92	0x3d24df7f	0.040252205
93	0x3d5d3052	0.05400116
94	0x3defb566	0.11704521
95	0x3d25fee5	0.04052629
96	0x3dae36c9	0.08506543
97	0xbdcbc816	-0.09950273
98	0xbaf89ddf	-0.0018967948
99	0xbd27401a	-0.040832616
100	0xbc596d40	-0.013270676
101	0xbe0fbdf1	-0.140373
102	0xbc508c4c	-0.012728762
103	0x3d0d11ee	0.034440927
104	0x3dd45fb2	0.10369815
105	0xbdaaf2a2	-0.0834706
106	0x3d389393	0.045062613
107	0xbdcf5ff6	-0.10125725
108	0x3ccadfae	0.024764862
109	0xbdd60899	-0.104508586
110	0xbdbee553	-0.09321084
111	0xbe168c9a	-0.14702073
112	0x3de2e331	0.110784896
113	0xbdc9c60b	-0.09852227
114	0xbcbfa380	-0.023393393
115	0xbcc1f42a	-0.023675997
116	0x3deb5116	0.11490075
117	0x3d8f4459	0.06995458
118	0xbd9a7d24	-0.075434
119	0x3dca1ef0	0.09869182
120	0xbd49eb35	-0.049296577
121	0xbd48b46e	-0.049000196
122	0x3cb700a5	0.022339175
123	0xbd9d5918	-0.07683009
124	0xbd80fe59	-0.06298513
125	0xbd2ebb11	-0.04265887
126	0xbe060c22	-0.13090566
127	0xbdd3d959	-0.1034419
128	0x3d547b2a	0.05187527
129	0xbdc10616	-0.09424989
130	0xbdc5a551	-0.09650672
131	0x3dff5f4b	0.124693476
132	0xbdcb1a51	-0.09917129
133	0xbd35e0db	-0.044403892
134	0x3db7c744	0.08973554
135	0x3c2becb2	0.010493444
136	0x3dcd0b7b	0.10011955
137	0xbded6511	-0.115915425
138	0xbcaf14c4	-0.021372207
139	0xbd083447	-0.03325298
140	0xbdcab6c5	-0.09898142
141	0xbdb5c7eb	-0.08876022
142	0x3cd8d537	0.026468856
143	0x3a9ec880	0.0012114197
144	0x3dde837c	0.108649224
145	0xbe04e8c6	-0.12979421
146	0xbe01c0be	-0.12671182
147	0x3b370aa5	0.0027929929
148	0xbdf43fe1	-0.119262464
149	0x3dd2cf78	0.10293478
150	0x3c99ead5	0.018788734
151	0xbd768ab9	-0.06019089
152	0x3d5923dd	0.053012718
153	0x3dc8683e	0.097855076
154	0xbdd30c98	-0.103051364
155	0x3d0774a6	0.03307023
156	0xbd9689f8	-0.07350534
157	0x3d109a45	0.035303373
158	0xbbb125f6	-0.0054061366
159	0xbd3cfae4	-0.046137705
160	0xbb9d64b2	-0.0048032636
161	0x3d998641	0.0749631
162	0x3cf0806b	0.02935811
163	0x3d5f6d39	0.054547522
164	0xbcf4528a	-0.029824514
165	0xbd031762	-0.03200472
166	0xbd7a050f	-0.06103998
167	0x3d654ffe	0.05598449
168	0xbdc95c96	-0.098321125
169	0xbd9700b5	-0.07373182
170	0xbdd80552	-0.1054789
171	0xbd1ee86e	-0.03879588
172	0xbd4d9f60	-0.05020082
173	0x3c8dadf5	0.017294863
174	0xbcef53bf	-0.029214738
175	0x3e3a0fd6	0.18170103
176	0xbda5fb76	-0.08104603
177	0xbda54ffd	-0.08071897
178	0x3c422b98	0.011851214
179	0xbe0d308a	-0.13788047
180	0x3d056e38	0.032575816
181	0xbc6282fc	-0.013825174
182	0x3d029165	0.03187694
183	0x3e292455	0.16517766
184	0xbd57e52c	-0.05270879
185	0xbd7f442b	-0.06232087
186	0xbdeb0b27	-0.114767365
187	0xbbc4e283	-0.0060084476
188	0xbd9ad4e0	-0.07560134
189	0xbd3c682b	-0.04599778
190	0x3da7d225	0.08194379
191	0x3dacbcc9	0.084344454

lstm.bias_hh_l1 f4 [192]
0	0xbdbb1855	-0.091355
1	0xbe0e099c	-0.13870853
2	0xbdcff57f	-0.101542465
3	0xbe15b1ce	-0.14618608
4	0xbdf17634	-0.117901236
5	0xbe17c17a	-0.14819899
6	0xbccc3ca6	-0.024931263
7	0x3d79257f	0.060826775
8	0xbd60bad5	-0.054865677
9	0xbd8dfd4c	-0.06933078
10	0x3d3016f3	0.042990636
11	0x3e0c4870	0.13699508
12	0x3d05187d	0.032494057
13	0x3d61e288	0.055147678
14	0x3c981247	0.018563403
15	0xbd09248f	-0.03348213
16	0x3dcc43cf	0.09973871
17	0xba5bbcfb	-0.00083823473
18	0xbdc16788	-0.09443575
19	0x3e2c0c76	0.16801628
20	0xbdeef0bf	-0.116670124
21	0x3d117b1d	0.0355178
22	0xbc18801c	-0.009307887
23	0xbdcfca45	-0.10146002
24	0xbd8cd6ee	-0.06876932
25	0xbd106f60	-0.035262465
26	0x3d108f0c	0.03529267
27	0x3e01fab5	0.12693293
28	0xbdfea431	-0.12433661
29	0x3e075699	0.13216628
30	0xbd312442	-0.04324747
31	0x3d0fa5c3	0.035070192
32	0x3ccc6550	0.024950653
33	0x3de649cb	0.11244544
34	0xbdfebce2	-0.1243837
35	0x3d95eddf	0.07320761
36	0xbd4a6f72	-0.04942269
37	0x3cafead0	0.021474272
38	0xbc4d8c71	-0.012545691
39	0x3dc2a020	0.09503198
40	0x3df27bab	0.11839994
41	0x3dea9bb7	0.114554815
42	0x3ddc994c	0.107714266
43	0x3d87fad5	0.06639639
44	0x3d34edc2	0.044172056
45	0x3e0efb2b	0.13963
46	0x3d3a4ed7	0.045485344
47	0x3d3661b4	0.04452677
48	0x3d5ffc0f	0.05468374
49	0xbdb3d3cd	-0.08780632
50	0x3d002f33	0.031295013
51	0x3d989db1	0.07451952
52	0xbb9b942d	-0.0047478885
53	0x3dfbdebe	0.12298344
54	0x3dbef1b8	0.09323448
55	0xbdf7500f	-0.12075817
56	0x3df6411b	0.12024137
57	0x3de5fb83	0.11229613
58	0xbde027ae	-0.10945068
59	0x3d0750f4	0.033036187
60	0xbe04e8f0	-0.12979484
61	0x3d16ecec	0.03684704
62	0x3d855206	0.06509785
63	0x3e019916	0.12656054
64	0x3e199604	0.14998633
65	0x3d462c75	0.04838224
66	0x3d5813b7	0.052753177
67	0x3da9c543	0.08289578
68	0xbd88d5fe	-0.06681441
69	0xbe049d1e	-0.1295056
70	0xbd8e6832	-0.069534674
71	0xbe030e10	-0.12798333
72	0xbde17d9d	-0.11010287
73	0x3ca35549	0.019938128
74	0x3ceb7d6f	0.028746335
75	0xbe055ff9	-0.13024892
76	0x3d70c853	0.058784794
77	0xbda6fa1e	-0.08153175
78	0xbd763781	-0.060111526
79	0xbd3dcf47	-0.046340253
80	0xbc1c342f	-0.009533926
81	0xbdae0f64	-0.08499029
82	0xbd922f7f	-0.071379654
83	0x3d5615dd	0.052266944
84	0xbdba0bb8	-0.090842664
85	0x3e0378cd	0.1283905
86	0xbc1ed932	-0.009695338
87	0x3db32c86	0.087487265
88	0x3d545a43	0.051843893
89	0xbd4f69b4	-0.050637916
90	0x3e0a6786	0.13516054
91	0x3ca02a23	0.019551342
92	0xbdb3c305	-0.087774314
93	0xbdd2614f	-0.102724664
94	0x3cba8fb9	0.02277361
95	0xbdeebe13	-0.116573475
96	0x3d2cf582	0.042226322
97	0xbd83203c	-0.064026326
98	0x3dcac449	0.0990072
99	0xbcc10c12	-0.023565326
100	0x3dea9028	0.11453277
101	0x3df49bfd	0.11943815
102	0x3de626fd	0.11237905
103	0xbd767b08	-0.060175925
104	0x3b8992c8	0.004198406
105	0xbca84b65	-0.020543763
106	0x3dca7860	0.09886241
107	0x3d94ca7a	0.07265182
108	0xbdb7ee52	-0.08981003
109	0x3d36df61	0.044646624
110	0x3d260040	0.040527582
111	0x3deae539	0.11469502
112	0xbda39b98	-0.079886615
113	0x3bdd5f9d	0.0067557828
114	0x3c9c2924	0.019062586
115	0xbd42a4a4	-0.047520295
116	0xbda412c0	-0.08011389
117	0xbdbbaf0e	-0.091642484
118	0x3dfac74d	0.12245045
119	0xbd4894ee	-0.048970155
120	0xbcaeea19	-0.02135186
121	0x3d295689	0.041342292
122	0x3b19811f	0.002342291
123	0xbd910d6b	-0.070826374
124	0x3dc1e13f	0.094667904
125	0xbd5c13f3	-0.053729963
126	0x3cf3fc64	0.029783435
127	0xbc381789	-0.01123608
128	0xbd989841	-0.07450915
129	0xbd8c569d	-0.06852458
130	0x3d48de42	0.049040087
131	0x3cacd3af	0.021097032
132	0x3dc0daa5	0.09416703
133	0xbdf69bd5	-0.12041441
134	0x3c5f1d32	0.013617801
135	0x3cec1087	0.028816475
136	0xbc1e6606	-0.009667879
137	0xbcf4bd80	-0.029875517
138	0x3d93322a	0.071873024
139	0x3d35b807	0.044364955
140	0x3d48a55e	0.04898583
141	0x3dc459d0	0.09587443
142	0xbde88eee	-0.11355387
143	0x3dcc7bb5	0.09984533
144	0x3d95d63b	0.07316252
145	0x3d9014e7	0.07035237
146	0x3d5a6d85	0.053327102
147	0xbdc1a915	-0.09456078
148	0x3d0efd3a	0.034909464
149	0x3dbcd77c	0.09220788
150	0xbd00a6e4	-0.03140916
151	0xbdf45753	-0.11930718
152	0xbcbaf038	-0.022819623
153	0x3dc7baa0	0.09752393
154	0xbd436632	-0.047704883
155	0xbdd78456	-0.10523288
156	0x3a888d48	0.0010418082
157	0xbe2883b4	-0.16456491
158	0x3dbc884f	0.09205686
159	0xbd19eacc	-0.037577435
160	0xbd483b9a	-0.048884965
161	0x3dbacaff	0.0912075
162	0x3dc45a67	0.095875554
163	0xbd540fab	-0.051772755
164	0xba9b026c	-0.0011826283
165	0x3df89ddf	0.121394865
166	0x3d3290bd	0.043595064
167	0x3ceabb3e	0.028653737
168	0xbdd27022	-0.10275294
169	0xbb136ee5	-0.0022496518
170	0xbda73be4	-0.0816572
171	0xbd4e6ee4	-0.050398722
172	0xbd888ca4	-0.0666745
173	0x3dd6705b	0.10470649
174	0x3dc6ca60	0.09706569
175	0xbd12ec1e	-0.03586971
176	0xbdf67073	-0.12033167
177	0xbe0fa68a	-0.14028373
178	0xbd83f717	-0.06443613
179	0x3d07ccf1	0.03315443
180	0x3d544492	0.051823206
181	0xbdde2e74	-0.10848704
182	0xbdc8f762	-0.098128095
183	0xbddf2c18	-0.10897082
184	0xbdc50db8	-0.09621757
185	0xbdc232f4	-0.09482375
186	0xbce72e5e	-0.028220352
187	0x3dc21c4b	0.09478053
188	0xbd80fdc4	-0.06298402
189	0x3dc20d07	0.09475141
190	0x3d7f2408	0.06229022
191	0x3d32fd9c	0.043698892
